…
I1018 23:07:11.563191  8982 upgrade_proto.cpp:66] Attempting to upgrade input file specified using deprecated input fields: models/fcn/test_inference.prototxt
I1018 23:07:11.563216  8982 upgrade_proto.cpp:69] Successfully upgraded file specified using deprecated input fields.
W1018 23:07:11.563220  8982 upgrade_proto.cpp:71] Note that future Caffe releases will only support input layers and not input fields.
I1018 23:07:11.564251  8982 net.cpp:58] Initializing net from parameters: 
name: "PVANET"
state {
  phase: TEST
  level: 0
}
layer {
  name: "input"
  type: "Input"
  top: "data"
  input_param {
    shape {
      dim: 1
      dim: 3
      dim: 640
      dim: 1056
    }
  }
}
layer {
  name: "conv1_1/conv"
  type: "Convolution"
  bottom: "data"
  top: "conv1_1/conv"
  param {
    lr_mult: 0.1
    decay_mult: 0.1
  }
  convolution_param {
    num_output: 16
    bias_term: true
    weight_filler {
      type: "xavier"
    }
    bias_filler {
      type: "constant"
      value: 0
    }
    pad_h: 3
    pad_w: 3
    kernel_h: 7
    kernel_w: 7
    stride_h: 2
    stride_w: 2
  }
}
layer {
  name: "conv1_1/neg"
  type: "Power"
  bottom: "conv1_1/conv"
  top: "conv1_1/neg"
  power_param {
    power: 1
    scale: -1
    shift: 0
  }
}
layer {
  name: "conv1_1/concat"
  type: "Concat"
  bottom: "conv1_1/conv"
  bottom: "conv1_1/neg"
  top: "conv1_1"
}
layer {
  name: "conv1_1/scale"
  type: "Scale"
  bottom: "conv1_1"
  top: "conv1_1"
  param {
    lr_mult: 0.1
    decay_mult: 0
  }
  param {
    lr_mult: 0.2
    decay_mult: 0
  }
  scale_param {
    bias_term: true
  }
}
layer {
  name: "conv1_1/relu"
  type: "ReLU"
  bottom: "conv1_1"
  top: "conv1_1"
}
layer {
  name: "pool1"
  type: "Pooling"
  bottom: "conv1_1"
  top: "pool1"
  pooling_param {
    pool: MAX
    kernel_size: 3
    stride: 2
    pad: 0
  }
}
layer {
  name: "conv2_1/1/conv"
  type: "Convolution"
  bottom: "pool1"
  top: "conv2_1/1"
  param {
    lr_mult: 0.1
    decay_mult: 0.1
  }
  convolution_param {
    num_output: 24
    bias_term: true
    weight_filler {
      type: "xavier"
    }
    bias_filler {
      type: "constant"
      value: 0
    }
    pad_h: 0
    pad_w: 0
    kernel_h: 1
    kernel_w: 1
    stride_h: 1
    stride_w: 1
    engine: CAFFE
  }
}
layer {
  name: "conv2_1/1/relu"
  type: "ReLU"
  bottom: "conv2_1/1"
  top: "conv2_1/1"
}
layer {
  name: "conv2_1/2/conv"
  type: "Convolution"
  bottom: "conv2_1/1"
  top: "conv2_1/2/conv"
  param {
    lr_mult: 0.1
    decay_mult: 0.1
  }
  convolution_param {
    num_output: 24
    bias_term: true
    weight_filler {
      type: "xavier"
    }
    bias_filler {
      type: "constant"
      value: 0
    }
    pad_h: 1
    pad_w: 1
    kernel_h: 3
    kernel_w: 3
    stride_h: 1
    stride_w: 1
  }
}
layer {
  name: "conv2_1/2/neg"
  type: "Power"
  bottom: "conv2_1/2/conv"
  top: "conv2_1/2/neg"
  power_param {
    power: 1
    scale: -1
    shift: 0
  }
}
layer {
  name: "conv2_1/2/concat"
  type: "Concat"
  bottom: "conv2_1/2/conv"
  bottom: "conv2_1/2/neg"
  top: "conv2_1/2"
}
layer {
  name: "conv2_1/2/scale"
  type: "Scale"
  bottom: "conv2_1/2"
  top: "conv2_1/2"
  param {
    lr_mult: 0.1
    decay_mult: 0
  }
  param {
    lr_mult: 0.2
    decay_mult: 0
  }
  scale_param {
    bias_term: true
  }
}
layer {
  name: "conv2_1/2/relu"
  type: "ReLU"
  bottom: "conv2_1/2"
  top: "conv2_1/2"
}
layer {
  name: "conv2_1/3/conv"
  type: "Convolution"
  bottom: "conv2_1/2"
  top: "conv2_1/3"
  param {
    lr_mult: 0.1
    decay_mult: 0.1
  }
  convolution_param {
    num_output: 64
    bias_term: true
    weight_filler {
      type: "xavier"
    }
    bias_filler {
      type: "constant"
      value: 0
    }
    pad_h: 0
    pad_w: 0
    kernel_h: 1
    kernel_w: 1
    stride_h: 1
    stride_w: 1
    engine: CAFFE
  }
}
layer {
  name: "conv2_1/proj"
  type: "Convolution"
  bottom: "pool1"
  top: "conv2_1/proj"
  param {
    lr_mult: 0.1
    decay_mult: 0.1
  }
  param {
    lr_mult: 0.2
    decay_mult: 0
  }
  convolution_param {
    num_output: 64
    weight_filler {
      type: "xavier"
    }
    bias_filler {
      type: "constant"
      value: 0.1
    }
    pad_h: 0
    pad_w: 0
    kernel_h: 1
    kernel_w: 1
    stride_h: 1
    stride_w: 1
    engine: CAFFE
  }
}
layer {
  name: "conv2_1"
  type: "Eltwise"
  bottom: "conv2_1/3"
  bottom: "conv2_1/proj"
  top: "conv2_1"
  eltwise_param {
    operation: SUM
    coeff: 1
    coeff: 1
  }
}
layer {
  name: "conv2_2/1/conv"
  type: "Convolution"
  bottom: "conv2_1"
  top: "conv2_2/1"
  param {
    lr_mult: 0.1
    decay_mult: 0.1
  }
  convolution_param {
    num_output: 24
    bias_term: true
    weight_filler {
      type: "xavier"
    }
    bias_filler {
      type: "constant"
      value: 0
    }
    pad_h: 0
    pad_w: 0
    kernel_h: 1
    kernel_w: 1
    stride_h: 1
    stride_w: 1
    engine: CAFFE
  }
}
layer {
  name: "conv2_2/1/relu"
  type: "ReLU"
  bottom: "conv2_2/1"
  top: "conv2_2/1"
}
layer {
  name: "conv2_2/2/conv"
  type: "Convolution"
  bottom: "conv2_2/1"
  top: "conv2_2/2/conv"
  param {
    lr_mult: 0.1
    decay_mult: 0.1
  }
  convolution_param {
    num_output: 24
    bias_term: true
    weight_filler {
      type: "xavier"
    }
    bias_filler {
      type: "constant"
      value: 0
    }
    pad_h: 1
    pad_w: 1
    kernel_h: 3
    kernel_w: 3
    stride_h: 1
    stride_w: 1
  }
}
layer {
  name: "conv2_2/2/neg"
  type: "Power"
  bottom: "conv2_2/2/conv"
  top: "conv2_2/2/neg"
  power_param {
    power: 1
    scale: -1
    shift: 0
  }
}
layer {
  name: "conv2_2/2/concat"
  type: "Concat"
  bottom: "conv2_2/2/conv"
  bottom: "conv2_2/2/neg"
  top: "conv2_2/2"
}
layer {
  name: "conv2_2/2/scale"
  type: "Scale"
  bottom: "conv2_2/2"
  top: "conv2_2/2"
  param {
    lr_mult: 0.1
    decay_mult: 0
  }
  param {
    lr_mult: 0.2
    decay_mult: 0
  }
  scale_param {
    bias_term: true
  }
}
layer {
  name: "conv2_2/2/relu"
  type: "ReLU"
  bottom: "conv2_2/2"
  top: "conv2_2/2"
}
layer {
  name: "conv2_2/3/conv"
  type: "Convolution"
  bottom: "conv2_2/2"
  top: "conv2_2/3"
  param {
    lr_mult: 0.1
    decay_mult: 0.1
  }
  convolution_param {
    num_output: 64
    bias_term: true
    weight_filler {
      type: "xavier"
    }
    bias_filler {
      type: "constant"
      value: 0
    }
    pad_h: 0
    pad_w: 0
    kernel_h: 1
    kernel_w: 1
    stride_h: 1
    stride_w: 1
    engine: CAFFE
  }
}
layer {
  name: "conv2_2/input"
  type: "Power"
  bottom: "conv2_1"
  top: "conv2_2/input"
  power_param {
    power: 1
    scale: 1
    shift: 0
  }
}
layer {
  name: "conv2_2"
  type: "Eltwise"
  bottom: "conv2_2/3"
  bottom: "conv2_2/input"
  top: "conv2_2"
  eltwise_param {
    operation: SUM
    coeff: 1
    coeff: 1
  }
}
layer {
  name: "conv2_3/1/conv"
  type: "Convolution"
  bottom: "conv2_2"
  top: "conv2_3/1"
  param {
    lr_mult: 0.1
    decay_mult: 0.1
  }
  convolution_param {
    num_output: 24
    bias_term: true
    weight_filler {
      type: "xavier"
    }
    bias_filler {
      type: "constant"
      value: 0
    }
    pad_h: 0
    pad_w: 0
    kernel_h: 1
    kernel_w: 1
    stride_h: 1
    stride_w: 1
    engine: CAFFE
  }
}
layer {
  name: "conv2_3/1/relu"
  type: "ReLU"
  bottom: "conv2_3/1"
  top: "conv2_3/1"
}
layer {
  name: "conv2_3/2/conv"
  type: "Convolution"
  bottom: "conv2_3/1"
  top: "conv2_3/2/conv"
  param {
    lr_mult: 0.1
    decay_mult: 0.1
  }
  convolution_param {
    num_output: 24
    bias_term: true
    weight_filler {
      type: "xavier"
    }
    bias_filler {
      type: "constant"
      value: 0
    }
    pad_h: 1
    pad_w: 1
    kernel_h: 3
    kernel_w: 3
    stride_h: 1
    stride_w: 1
  }
}
layer {
  name: "conv2_3/2/neg"
  type: "Power"
  bottom: "conv2_3/2/conv"
  top: "conv2_3/2/neg"
  power_param {
    power: 1
    scale: -1
    shift: 0
  }
}
layer {
  name: "conv2_3/2/concat"
  type: "Concat"
  bottom: "conv2_3/2/conv"
  bottom: "conv2_3/2/neg"
  top: "conv2_3/2"
}
layer {
  name: "conv2_3/2/scale"
  type: "Scale"
  bottom: "conv2_3/2"
  top: "conv2_3/2"
  param {
    lr_mult: 0.1
    decay_mult: 0
  }
  param {
    lr_mult: 0.2
    decay_mult: 0
  }
  scale_param {
    bias_term: true
  }
}
layer {
  name: "conv2_3/2/relu"
  type: "ReLU"
  bottom: "conv2_3/2"
  top: "conv2_3/2"
}
layer {
  name: "conv2_3/3/conv"
  type: "Convolution"
  bottom: "conv2_3/2"
  top: "conv2_3/3"
  param {
    lr_mult: 0.1
    decay_mult: 0.1
  }
  convolution_param {
    num_output: 64
    bias_term: true
    weight_filler {
      type: "xavier"
    }
    bias_filler {
      type: "constant"
      value: 0
    }
    pad_h: 0
    pad_w: 0
    kernel_h: 1
    kernel_w: 1
    stride_h: 1
    stride_w: 1
    engine: CAFFE
  }
}
layer {
  name: "conv2_3/input"
  type: "Power"
  bottom: "conv2_2"
  top: "conv2_3/input"
  power_param {
    power: 1
    scale: 1
    shift: 0
  }
}
layer {
  name: "conv2_3"
  type: "Eltwise"
  bottom: "conv2_3/3"
  bottom: "conv2_3/input"
  top: "conv2_3"
  eltwise_param {
    operation: SUM
    coeff: 1
    coeff: 1
  }
}
layer {
  name: "conv3_1/1/conv"
  type: "Convolution"
  bottom: "conv2_3"
  top: "conv3_1/1"
  param {
    lr_mult: 0.1
    decay_mult: 0.1
  }
  convolution_param {
    num_output: 48
    bias_term: true
    weight_filler {
      type: "xavier"
    }
    bias_filler {
      type: "constant"
      value: 0
    }
    pad_h: 0
    pad_w: 0
    kernel_h: 1
    kernel_w: 1
    stride_h: 2
    stride_w: 2
    engine: CAFFE
  }
}
layer {
  name: "conv3_1/1/relu"
  type: "ReLU"
  bottom: "conv3_1/1"
  top: "conv3_1/1"
}
layer {
  name: "conv3_1/2/conv"
  type: "Convolution"
  bottom: "conv3_1/1"
  top: "conv3_1/2/conv"
  param {
    lr_mult: 0.1
    decay_mult: 0.1
  }
  convolution_param {
    num_output: 48
    bias_term: true
    weight_filler {
      type: "xavier"
    }
    bias_filler {
      type: "constant"
      value: 0
    }
    pad_h: 1
    pad_w: 1
    kernel_h: 3
    kernel_w: 3
    stride_h: 1
    stride_w: 1
  }
}
layer {
  name: "conv3_1/2/neg"
  type: "Power"
  bottom: "conv3_1/2/conv"
  top: "conv3_1/2/neg"
  power_param {
    power: 1
    scale: -1
    shift: 0
  }
}
layer {
  name: "conv3_1/2/concat"
  type: "Concat"
  bottom: "conv3_1/2/conv"
  bottom: "conv3_1/2/neg"
  top: "conv3_1/2"
}
layer {
  name: "conv3_1/2/scale"
  type: "Scale"
  bottom: "conv3_1/2"
  top: "conv3_1/2"
  param {
    lr_mult: 0.1
    decay_mult: 0
  }
  param {
    lr_mult: 0.2
    decay_mult: 0
  }
  scale_param {
    bias_term: true
  }
}
layer {
  name: "conv3_1/2/relu"
  type: "ReLU"
  bottom: "conv3_1/2"
  top: "conv3_1/2"
}
layer {
  name: "conv3_1/3/conv"
  type: "Convolution"
  bottom: "conv3_1/2"
  top: "conv3_1/3"
  param {
    lr_mult: 0.1
    decay_mult: 0.1
  }
  convolution_param {
    num_output: 128
    bias_term: true
    weight_filler {
      type: "xavier"
    }
    bias_filler {
      type: "constant"
      value: 0
    }
    pad_h: 0
    pad_w: 0
    kernel_h: 1
    kernel_w: 1
    stride_h: 1
    stride_w: 1
    engine: CAFFE
  }
}
layer {
  name: "conv3_1/proj"
  type: "Convolution"
  bottom: "conv2_3"
  top: "conv3_1/proj"
  param {
    lr_mult: 0.1
    decay_mult: 0.1
  }
  param {
    lr_mult: 0.2
    decay_mult: 0
  }
  convolution_param {
    num_output: 128
    weight_filler {
      type: "xavier"
    }
    bias_filler {
      type: "constant"
      value: 0.1
    }
    pad_h: 0
    pad_w: 0
    kernel_h: 1
    kernel_w: 1
    stride_h: 2
    stride_w: 2
    engine: CAFFE
  }
}
layer {
  name: "conv3_1"
  type: "Eltwise"
  bottom: "conv3_1/3"
  bottom: "conv3_1/proj"
  top: "conv3_1"
  eltwise_param {
    operation: SUM
    coeff: 1
    coeff: 1
  }
}
layer {
  name: "conv3_2/1/conv"
  type: "Convolution"
  bottom: "conv3_1"
  top: "conv3_2/1"
  param {
    lr_mult: 0.1
    decay_mult: 0.1
  }
  convolution_param {
    num_output: 48
    bias_term: true
    weight_filler {
      type: "xavier"
    }
    bias_filler {
      type: "constant"
      value: 0
    }
    pad_h: 0
    pad_w: 0
    kernel_h: 1
    kernel_w: 1
    stride_h: 1
    stride_w: 1
    engine: CAFFE
  }
}
layer {
  name: "conv3_2/1/relu"
  type: "ReLU"
  bottom: "conv3_2/1"
  top: "conv3_2/1"
}
layer {
  name: "conv3_2/2/conv"
  type: "Convolution"
  bottom: "conv3_2/1"
  top: "conv3_2/2/conv"
  param {
    lr_mult: 0.1
    decay_mult: 0.1
  }
  convolution_param {
    num_output: 48
    bias_term: true
    weight_filler {
      type: "xavier"
    }
    bias_filler {
      type: "constant"
      value: 0
    }
    pad_h: 1
    pad_w: 1
    kernel_h: 3
    kernel_w: 3
    stride_h: 1
    stride_w: 1
  }
}
layer {
  name: "conv3_2/2/neg"
  type: "Power"
  bottom: "conv3_2/2/conv"
  top: "conv3_2/2/neg"
  power_param {
    power: 1
    scale: -1
    shift: 0
  }
}
layer {
  name: "conv3_2/2/concat"
  type: "Concat"
  bottom: "conv3_2/2/conv"
  bottom: "conv3_2/2/neg"
  top: "conv3_2/2"
}
layer {
  name: "conv3_2/2/scale"
  type: "Scale"
  bottom: "conv3_2/2"
  top: "conv3_2/2"
  param {
    lr_mult: 0.1
    decay_mult: 0
  }
  param {
    lr_mult: 0.2
    decay_mult: 0
  }
  scale_param {
    bias_term: true
  }
}
layer {
  name: "conv3_2/2/relu"
  type: "ReLU"
  bottom: "conv3_2/2"
  top: "conv3_2/2"
}
layer {
  name: "conv3_2/3/conv"
  type: "Convolution"
  bottom: "conv3_2/2"
  top: "conv3_2/3"
  param {
    lr_mult: 0.1
    decay_mult: 0.1
  }
  convolution_param {
    num_output: 128
    bias_term: true
    weight_filler {
      type: "xavier"
    }
    bias_filler {
      type: "constant"
      value: 0
    }
    pad_h: 0
    pad_w: 0
    kernel_h: 1
    kernel_w: 1
    stride_h: 1
    stride_w: 1
    engine: CAFFE
  }
}
layer {
  name: "conv3_2/input"
  type: "Power"
  bottom: "conv3_1"
  top: "conv3_2/input"
  power_param {
    power: 1
    scale: 1
    shift: 0
  }
}
layer {
  name: "conv3_2"
  type: "Eltwise"
  bottom: "conv3_2/3"
  bottom: "conv3_2/input"
  top: "conv3_2"
  eltwise_param {
    operation: SUM
    coeff: 1
    coeff: 1
  }
}
layer {
  name: "conv3_3/1/conv"
  type: "Convolution"
  bottom: "conv3_2"
  top: "conv3_3/1"
  param {
    lr_mult: 0.1
    decay_mult: 0.1
  }
  convolution_param {
    num_output: 48
    bias_term: true
    weight_filler {
      type: "xavier"
    }
    bias_filler {
      type: "constant"
      value: 0
    }
    pad_h: 0
    pad_w: 0
    kernel_h: 1
    kernel_w: 1
    stride_h: 1
    stride_w: 1
    engine: CAFFE
  }
}
layer {
  name: "conv3_3/1/relu"
  type: "ReLU"
  bottom: "conv3_3/1"
  top: "conv3_3/1"
}
layer {
  name: "conv3_3/2/conv"
  type: "Convolution"
  bottom: "conv3_3/1"
  top: "conv3_3/2/conv"
  param {
    lr_mult: 0.1
    decay_mult: 0.1
  }
  convolution_param {
    num_output: 48
    bias_term: true
    weight_filler {
      type: "xavier"
    }
    bias_filler {
      type: "constant"
      value: 0
    }
    pad_h: 1
    pad_w: 1
    kernel_h: 3
    kernel_w: 3
    stride_h: 1
    stride_w: 1
  }
}
layer {
  name: "conv3_3/2/neg"
  type: "Power"
  bottom: "conv3_3/2/conv"
  top: "conv3_3/2/neg"
  power_param {
    power: 1
    scale: -1
    shift: 0
  }
}
layer {
  name: "conv3_3/2/concat"
  type: "Concat"
  bottom: "conv3_3/2/conv"
  bottom: "conv3_3/2/neg"
  top: "conv3_3/2"
}
layer {
  name: "conv3_3/2/scale"
  type: "Scale"
  bottom: "conv3_3/2"
  top: "conv3_3/2"
  param {
    lr_mult: 0.1
    decay_mult: 0
  }
  param {
    lr_mult: 0.2
    decay_mult: 0
  }
  scale_param {
    bias_term: true
  }
}
layer {
  name: "conv3_3/2/relu"
  type: "ReLU"
  bottom: "conv3_3/2"
  top: "conv3_3/2"
}
layer {
  name: "conv3_3/3/conv"
  type: "Convolution"
  bottom: "conv3_3/2"
  top: "conv3_3/3"
  param {
    lr_mult: 0.1
    decay_mult: 0.1
  }
  convolution_param {
    num_output: 128
    bias_term: true
    weight_filler {
      type: "xavier"
    }
    bias_filler {
      type: "constant"
      value: 0
    }
    pad_h: 0
    pad_w: 0
    kernel_h: 1
    kernel_w: 1
    stride_h: 1
    stride_w: 1
    engine: CAFFE
  }
}
layer {
  name: "conv3_3/input"
  type: "Power"
  bottom: "conv3_2"
  top: "conv3_3/input"
  power_param {
    power: 1
    scale: 1
    shift: 0
  }
}
layer {
  name: "conv3_3"
  type: "Eltwise"
  bottom: "conv3_3/3"
  bottom: "conv3_3/input"
  top: "conv3_3"
  eltwise_param {
    operation: SUM
    coeff: 1
    coeff: 1
  }
}
layer {
  name: "conv3_4/1/conv"
  type: "Convolution"
  bottom: "conv3_3"
  top: "conv3_4/1"
  param {
    lr_mult: 0.1
    decay_mult: 0.1
  }
  convolution_param {
    num_output: 48
    bias_term: true
    weight_filler {
      type: "xavier"
    }
    bias_filler {
      type: "constant"
      value: 0
    }
    pad_h: 0
    pad_w: 0
    kernel_h: 1
    kernel_w: 1
    stride_h: 1
    stride_w: 1
    engine: CAFFE
  }
}
layer {
  name: "conv3_4/1/relu"
  type: "ReLU"
  bottom: "conv3_4/1"
  top: "conv3_4/1"
}
layer {
  name: "conv3_4/2/conv"
  type: "Convolution"
  bottom: "conv3_4/1"
  top: "conv3_4/2/conv"
  param {
    lr_mult: 0.1
    decay_mult: 0.1
  }
  convolution_param {
    num_output: 48
    bias_term: true
    weight_filler {
      type: "xavier"
    }
    bias_filler {
      type: "constant"
      value: 0
    }
    pad_h: 1
    pad_w: 1
    kernel_h: 3
    kernel_w: 3
    stride_h: 1
    stride_w: 1
  }
}
layer {
  name: "conv3_4/2/neg"
  type: "Power"
  bottom: "conv3_4/2/conv"
  top: "conv3_4/2/neg"
  power_param {
    power: 1
    scale: -1
    shift: 0
  }
}
layer {
  name: "conv3_4/2/concat"
  type: "Concat"
  bottom: "conv3_4/2/conv"
  bottom: "conv3_4/2/neg"
  top: "conv3_4/2"
}
layer {
  name: "conv3_4/2/scale"
  type: "Scale"
  bottom: "conv3_4/2"
  top: "conv3_4/2"
  param {
    lr_mult: 0.1
    decay_mult: 0
  }
  param {
    lr_mult: 0.2
    decay_mult: 0
  }
  scale_param {
    bias_term: true
  }
}
layer {
  name: "conv3_4/2/relu"
  type: "ReLU"
  bottom: "conv3_4/2"
  top: "conv3_4/2"
}
layer {
  name: "conv3_4/3/conv"
  type: "Convolution"
  bottom: "conv3_4/2"
  top: "conv3_4/3"
  param {
    lr_mult: 0.1
    decay_mult: 0.1
  }
  convolution_param {
    num_output: 128
    bias_term: true
    weight_filler {
      type: "xavier"
    }
    bias_filler {
      type: "constant"
      value: 0
    }
    pad_h: 0
    pad_w: 0
    kernel_h: 1
    kernel_w: 1
    stride_h: 1
    stride_w: 1
    engine: CAFFE
  }
}
layer {
  name: "conv3_4/input"
  type: "Power"
  bottom: "conv3_3"
  top: "conv3_4/input"
  power_param {
    power: 1
    scale: 1
    shift: 0
  }
}
layer {
  name: "conv3_4"
  type: "Eltwise"
  bottom: "conv3_4/3"
  bottom: "conv3_4/input"
  top: "conv3_4"
  eltwise_param {
    operation: SUM
    coeff: 1
    coeff: 1
  }
}
layer {
  name: "conv4_1/incep/0/conv"
  type: "Convolution"
  bottom: "conv3_4"
  top: "conv4_1/incep/0"
  param {
    lr_mult: 0.1
    decay_mult: 0.1
  }
  convolution_param {
    num_output: 64
    bias_term: true
    weight_filler {
      type: "xavier"
    }
    bias_filler {
      type: "constant"
      value: 0
    }
    pad_h: 0
    pad_w: 0
    kernel_h: 1
    kernel_w: 1
    stride_h: 2
    stride_w: 2
    engine: CAFFE
  }
}
layer {
  name: "conv4_1/incep/0/relu"
  type: "ReLU"
  bottom: "conv4_1/incep/0"
  top: "conv4_1/incep/0"
}
layer {
  name: "conv4_1/incep/1_reduce/conv"
  type: "Convolution"
  bottom: "conv3_4"
  top: "conv4_1/incep/1_reduce"
  param {
    lr_mult: 0.1
    decay_mult: 0.1
  }
  convolution_param {
    num_output: 48
    bias_term: true
    weight_filler {
      type: "xavier"
    }
    bias_filler {
      type: "constant"
      value: 0
    }
    pad_h: 0
    pad_w: 0
    kernel_h: 1
    kernel_w: 1
    stride_h: 2
    stride_w: 2
    engine: CAFFE
  }
}
layer {
  name: "conv4_1/incep/1_reduce/relu"
  type: "ReLU"
  bottom: "conv4_1/incep/1_reduce"
  top: "conv4_1/incep/1_reduce"
}
layer {
  name: "conv4_1/incep/1_0/conv"
  type: "Convolution"
  bottom: "conv4_1/incep/1_reduce"
  top: "conv4_1/incep/1_0"
  param {
    lr_mult: 0.1
    decay_mult: 0.1
  }
  convolution_param {
    num_output: 128
    bias_term: true
    weight_filler {
      type: "xavier"
    }
    bias_filler {
      type: "constant"
      value: 0
    }
    pad_h: 1
    pad_w: 1
    kernel_h: 3
    kernel_w: 3
    stride_h: 1
    stride_w: 1
  }
}
layer {
  name: "conv4_1/incep/1_0/relu"
  type: "ReLU"
  bottom: "conv4_1/incep/1_0"
  top: "conv4_1/incep/1_0"
}
layer {
  name: "conv4_1/incep/2_reduce/conv"
  type: "Convolution"
  bottom: "conv3_4"
  top: "conv4_1/incep/2_reduce"
  param {
    lr_mult: 0.1
    decay_mult: 0.1
  }
  convolution_param {
    num_output: 24
    bias_term: true
    weight_filler {
      type: "xavier"
    }
    bias_filler {
      type: "constant"
      value: 0
    }
    pad_h: 0
    pad_w: 0
    kernel_h: 1
    kernel_w: 1
    stride_h: 2
    stride_w: 2
    engine: CAFFE
  }
}
layer {
  name: "conv4_1/incep/2_reduce/relu"
  type: "ReLU"
  bottom: "conv4_1/incep/2_reduce"
  top: "conv4_1/incep/2_reduce"
}
layer {
  name: "conv4_1/incep/2_0/conv"
  type: "Convolution"
  bottom: "conv4_1/incep/2_reduce"
  top: "conv4_1/incep/2_0"
  param {
    lr_mult: 0.1
    decay_mult: 0.1
  }
  convolution_param {
    num_output: 48
    bias_term: true
    weight_filler {
      type: "xavier"
    }
    bias_filler {
      type: "constant"
      value: 0
    }
    pad_h: 1
    pad_w: 1
    kernel_h: 3
    kernel_w: 3
    stride_h: 1
    stride_w: 1
  }
}
layer {
  name: "conv4_1/incep/2_0/relu"
  type: "ReLU"
  bottom: "conv4_1/incep/2_0"
  top: "conv4_1/incep/2_0"
}
layer {
  name: "conv4_1/incep/2_1/conv"
  type: "Convolution"
  bottom: "conv4_1/incep/2_0"
  top: "conv4_1/incep/2_1"
  param {
    lr_mult: 0.1
    decay_mult: 0.1
  }
  convolution_param {
    num_output: 48
    bias_term: true
    weight_filler {
      type: "xavier"
    }
    bias_filler {
      type: "constant"
      value: 0
    }
    pad_h: 1
    pad_w: 1
    kernel_h: 3
    kernel_w: 3
    stride_h: 1
    stride_w: 1
  }
}
layer {
  name: "conv4_1/incep/2_1/relu"
  type: "ReLU"
  bottom: "conv4_1/incep/2_1"
  top: "conv4_1/incep/2_1"
}
layer {
  name: "conv4_1/incep/pool"
  type: "Pooling"
  bottom: "conv3_4"
  top: "conv4_1/incep/pool"
  pooling_param {
    pool: MAX
    kernel_size: 3
    stride: 2
    pad: 0
  }
}
layer {
  name: "conv4_1/incep/poolproj/conv"
  type: "Convolution"
  bottom: "conv4_1/incep/pool"
  top: "conv4_1/incep/poolproj"
  param {
    lr_mult: 0.1
    decay_mult: 0.1
  }
  convolution_param {
    num_output: 128
    bias_term: true
    weight_filler {
      type: "xavier"
    }
    bias_filler {
      type: "constant"
      value: 0
    }
    pad_h: 0
    pad_w: 0
    kernel_h: 1
    kernel_w: 1
    stride_h: 1
    stride_w: 1
    engine: CAFFE
  }
}
layer {
  name: "conv4_1/incep/poolproj/relu"
  type: "ReLU"
  bottom: "conv4_1/incep/poolproj"
  top: "conv4_1/incep/poolproj"
}
layer {
  name: "conv4_1/incep"
  type: "Concat"
  bottom: "conv4_1/incep/0"
  bottom: "conv4_1/incep/1_0"
  bottom: "conv4_1/incep/2_1"
  bottom: "conv4_1/incep/poolproj"
  top: "conv4_1/incep"
}
layer {
  name: "conv4_1/out/conv"
  type: "Convolution"
  bottom: "conv4_1/incep"
  top: "conv4_1/out"
  param {
    lr_mult: 0.1
    decay_mult: 0.1
  }
  convolution_param {
    num_output: 256
    bias_term: true
    weight_filler {
      type: "xavier"
    }
    bias_filler {
      type: "constant"
      value: 0
    }
    pad_h: 0
    pad_w: 0
    kernel_h: 1
    kernel_w: 1
    stride_h: 1
    stride_w: 1
    engine: CAFFE
  }
}
layer {
  name: "conv4_1/proj"
  type: "Convolution"
  bottom: "conv3_4"
  top: "conv4_1/proj"
  param {
    lr_mult: 0.1
    decay_mult: 0.1
  }
  param {
    lr_mult: 0.2
    decay_mult: 0
  }
  convolution_param {
    num_output: 256
    weight_filler {
      type: "xavier"
    }
    bias_filler {
      type: "constant"
      value: 0.1
    }
    pad_h: 0
    pad_w: 0
    kernel_h: 1
    kernel_w: 1
    stride_h: 2
    stride_w: 2
    engine: CAFFE
  }
}
layer {
  name: "conv4_1"
  type: "Eltwise"
  bottom: "conv4_1/out"
  bottom: "conv4_1/proj"
  top: "conv4_1"
  eltwise_param {
    operation: SUM
    coeff: 1
    coeff: 1
  }
}
layer {
  name: "conv4_2/incep/0/conv"
  type: "Convolution"
  bottom: "conv4_1"
  top: "conv4_2/incep/0"
  param {
    lr_mult: 0.1
    decay_mult: 0.1
  }
  convolution_param {
    num_output: 64
    bias_term: true
    weight_filler {
      type: "xavier"
    }
    bias_filler {
      type: "constant"
      value: 0
    }
    pad_h: 0
    pad_w: 0
    kernel_h: 1
    kernel_w: 1
    stride_h: 1
    stride_w: 1
    engine: CAFFE
  }
}
layer {
  name: "conv4_2/incep/0/relu"
  type: "ReLU"
  bottom: "conv4_2/incep/0"
  top: "conv4_2/incep/0"
}
layer {
  name: "conv4_2/incep/1_reduce/conv"
  type: "Convolution"
  bottom: "conv4_1"
  top: "conv4_2/incep/1_reduce"
  param {
    lr_mult: 0.1
    decay_mult: 0.1
  }
  convolution_param {
    num_output: 64
    bias_term: true
    weight_filler {
      type: "xavier"
    }
    bias_filler {
      type: "constant"
      value: 0
    }
    pad_h: 0
    pad_w: 0
    kernel_h: 1
    kernel_w: 1
    stride_h: 1
    stride_w: 1
    engine: CAFFE
  }
}
layer {
  name: "conv4_2/incep/1_reduce/relu"
  type: "ReLU"
  bottom: "conv4_2/incep/1_reduce"
  top: "conv4_2/incep/1_reduce"
}
layer {
  name: "conv4_2/incep/1_0/conv"
  type: "Convolution"
  bottom: "conv4_2/incep/1_reduce"
  top: "conv4_2/incep/1_0"
  param {
    lr_mult: 0.1
    decay_mult: 0.1
  }
  convolution_param {
    num_output: 128
    bias_term: true
    weight_filler {
      type: "xavier"
    }
    bias_filler {
      type: "constant"
      value: 0
    }
    pad_h: 1
    pad_w: 1
    kernel_h: 3
    kernel_w: 3
    stride_h: 1
    stride_w: 1
  }
}
layer {
  name: "conv4_2/incep/1_0/relu"
  type: "ReLU"
  bottom: "conv4_2/incep/1_0"
  top: "conv4_2/incep/1_0"
}
layer {
  name: "conv4_2/incep/2_reduce/conv"
  type: "Convolution"
  bottom: "conv4_1"
  top: "conv4_2/incep/2_reduce"
  param {
    lr_mult: 0.1
    decay_mult: 0.1
  }
  convolution_param {
    num_output: 24
    bias_term: true
    weight_filler {
      type: "xavier"
    }
    bias_filler {
      type: "constant"
      value: 0
    }
    pad_h: 0
    pad_w: 0
    kernel_h: 1
    kernel_w: 1
    stride_h: 1
    stride_w: 1
    engine: CAFFE
  }
}
layer {
  name: "conv4_2/incep/2_reduce/relu"
  type: "ReLU"
  bottom: "conv4_2/incep/2_reduce"
  top: "conv4_2/incep/2_reduce"
}
layer {
  name: "conv4_2/incep/2_0/conv"
  type: "Convolution"
  bottom: "conv4_2/incep/2_reduce"
  top: "conv4_2/incep/2_0"
  param {
    lr_mult: 0.1
    decay_mult: 0.1
  }
  convolution_param {
    num_output: 48
    bias_term: true
    weight_filler {
      type: "xavier"
    }
    bias_filler {
      type: "constant"
      value: 0
    }
    pad_h: 1
    pad_w: 1
    kernel_h: 3
    kernel_w: 3
    stride_h: 1
    stride_w: 1
  }
}
layer {
  name: "conv4_2/incep/2_0/relu"
  type: "ReLU"
  bottom: "conv4_2/incep/2_0"
  top: "conv4_2/incep/2_0"
}
layer {
  name: "conv4_2/incep/2_1/conv"
  type: "Convolution"
  bottom: "conv4_2/incep/2_0"
  top: "conv4_2/incep/2_1"
  param {
    lr_mult: 0.1
    decay_mult: 0.1
  }
  convolution_param {
    num_output: 48
    bias_term: true
    weight_filler {
      type: "xavier"
    }
    bias_filler {
      type: "constant"
      value: 0
    }
    pad_h: 1
    pad_w: 1
    kernel_h: 3
    kernel_w: 3
    stride_h: 1
    stride_w: 1
  }
}
layer {
  name: "conv4_2/incep/2_1/relu"
  type: "ReLU"
  bottom: "conv4_2/incep/2_1"
  top: "conv4_2/incep/2_1"
}
layer {
  name: "conv4_2/incep"
  type: "Concat"
  bottom: "conv4_2/incep/0"
  bottom: "conv4_2/incep/1_0"
  bottom: "conv4_2/incep/2_1"
  top: "conv4_2/incep"
}
layer {
  name: "conv4_2/out/conv"
  type: "Convolution"
  bottom: "conv4_2/incep"
  top: "conv4_2/out"
  param {
    lr_mult: 0.1
    decay_mult: 0.1
  }
  convolution_param {
    num_output: 256
    bias_term: true
    weight_filler {
      type: "xavier"
    }
    bias_filler {
      type: "constant"
      value: 0
    }
    pad_h: 0
    pad_w: 0
    kernel_h: 1
    kernel_w: 1
    stride_h: 1
    stride_w: 1
    engine: CAFFE
  }
}
layer {
  name: "conv4_2/input"
  type: "Power"
  bottom: "conv4_1"
  top: "conv4_2/input"
  power_param {
    power: 1
    scale: 1
    shift: 0
  }
}
layer {
  name: "conv4_2"
  type: "Eltwise"
  bottom: "conv4_2/out"
  bottom: "conv4_2/input"
  top: "conv4_2"
  eltwise_param {
    operation: SUM
    coeff: 1
    coeff: 1
  }
}
layer {
  name: "conv4_3/incep/0/conv"
  type: "Convolution"
  bottom: "conv4_2"
  top: "conv4_3/incep/0"
  param {
    lr_mult: 0.1
    decay_mult: 0.1
  }
  convolution_param {
    num_output: 64
    bias_term: true
    weight_filler {
      type: "xavier"
    }
    bias_filler {
      type: "constant"
      value: 0
    }
    pad_h: 0
    pad_w: 0
    kernel_h: 1
    kernel_w: 1
    stride_h: 1
    stride_w: 1
    engine: CAFFE
  }
}
layer {
  name: "conv4_3/incep/0/relu"
  type: "ReLU"
  bottom: "conv4_3/incep/0"
  top: "conv4_3/incep/0"
}
layer {
  name: "conv4_3/incep/1_reduce/conv"
  type: "Convolution"
  bottom: "conv4_2"
  top: "conv4_3/incep/1_reduce"
  param {
    lr_mult: 0.1
    decay_mult: 0.1
  }
  convolution_param {
    num_output: 64
    bias_term: true
    weight_filler {
      type: "xavier"
    }
    bias_filler {
      type: "constant"
      value: 0
    }
    pad_h: 0
    pad_w: 0
    kernel_h: 1
    kernel_w: 1
    stride_h: 1
    stride_w: 1
    engine: CAFFE
  }
}
layer {
  name: "conv4_3/incep/1_reduce/relu"
  type: "ReLU"
  bottom: "conv4_3/incep/1_reduce"
  top: "conv4_3/incep/1_reduce"
}
layer {
  name: "conv4_3/incep/1_0/conv"
  type: "Convolution"
  bottom: "conv4_3/incep/1_reduce"
  top: "conv4_3/incep/1_0"
  param {
    lr_mult: 0.1
    decay_mult: 0.1
  }
  convolution_param {
    num_output: 128
    bias_term: true
    weight_filler {
      type: "xavier"
    }
    bias_filler {
      type: "constant"
      value: 0
    }
    pad_h: 1
    pad_w: 1
    kernel_h: 3
    kernel_w: 3
    stride_h: 1
    stride_w: 1
  }
}
layer {
  name: "conv4_3/incep/1_0/relu"
  type: "ReLU"
  bottom: "conv4_3/incep/1_0"
  top: "conv4_3/incep/1_0"
}
layer {
  name: "conv4_3/incep/2_reduce/conv"
  type: "Convolution"
  bottom: "conv4_2"
  top: "conv4_3/incep/2_reduce"
  param {
    lr_mult: 0.1
    decay_mult: 0.1
  }
  convolution_param {
    num_output: 24
    bias_term: true
    weight_filler {
      type: "xavier"
    }
    bias_filler {
      type: "constant"
      value: 0
    }
    
I1018 23:07:11.564851  8982 layer_factory.hpp:77] Creating layer input
I1018 23:07:11.564864  8982 net.cpp:100] Creating Layer input
I1018 23:07:11.564870  8982 net.cpp:408] input -> data
        'RPN_BATCHSIZE': 256,
           'RPN_BBOX_INSIDE_WEIGHTS': [1.0, 1.0, 1.0, 1.0],
           'RPN_CLOBBER_POSITIVES': False,
           'RPN_FG_FRACTION': 0.5,
           'RPN_MIN_SIZE': 16,
           'RPN_NEGATIVE_OVERLAP': 0.3,
           'RPN_NMS_THRESH': 0.7,
           'RPN_POSITIVE_OVERLAP': 0.7,
           'RPN_POSITIVE_WEIGHT': -1.0,
           'RPN_POST_NMS_TOP_N': 2000,
           'RPN_PRE_NMS_TOP_N': 12000,
           'SCALES': [192, 224, 256, 288, 320, 352, 384, 416, 448],
           'SCALE_MULTIPLE_OF': 32,
           'SNAPSHOT_INFIX': '',
           'SNAPSHOT_ITERS': 10000,
           'USE_FLIPPED': True,
           'USE_OHEM': False,
           'USE_PREFETCH': False},
 'USE_GPU_NMS': True}
1 3 640 1056 
I1018 23:07:11.571686  8982 net.cpp:150] Setting up input
I1018 23:07:11.571703  8982 net.cpp:157] Top shape: 1 3 640 1056 (2027520)
I1018 23:07:11.571705  8982 net.cpp:165] Memory required for data: 8110080
I1018 23:07:11.571710  8982 layer_factory.hpp:77] Creating layer conv1_1/conv
I1018 23:07:11.571723  8982 net.cpp:100] Creating Layer conv1_1/conv
I1018 23:07:11.571727  8982 net.cpp:434] conv1_1/conv <- data
I1018 23:07:11.571732  8982 net.cpp:408] conv1_1/conv -> conv1_1/conv
2 
2 
2 
2 
16 3 7 7 
16 
1 16 320 528 
3 
147 320 528 
168960 
I1018 23:07:11.686285  8982 net.cpp:150] Setting up conv1_1/conv
I1018 23:07:11.686305  8982 net.cpp:157] Top shape: 1 16 320 528 (2703360)
I1018 23:07:11.686307  8982 net.cpp:165] Memory required for data: 18923520
I1018 23:07:11.686319  8982 layer_factory.hpp:77] Creating layer conv1_1/conv_conv1_1/conv_0_split
I1018 23:07:11.686329  8982 net.cpp:100] Creating Layer conv1_1/conv_conv1_1/conv_0_split
I1018 23:07:11.686332  8982 net.cpp:434] conv1_1/conv_conv1_1/conv_0_split <- conv1_1/conv
I1018 23:07:11.686342  8982 net.cpp:408] conv1_1/conv_conv1_1/conv_0_split -> conv1_1/conv_conv1_1/conv_0_split_0
I1018 23:07:11.686349  8982 net.cpp:408] conv1_1/conv_conv1_1/conv_0_split -> conv1_1/conv_conv1_1/conv_0_split_1
1 16 320 528 
1 16 320 528 
I1018 23:07:11.686379  8982 net.cpp:150] Setting up conv1_1/conv_conv1_1/conv_0_split
I1018 23:07:11.686384  8982 net.cpp:157] Top shape: 1 16 320 528 (2703360)
I1018 23:07:11.686388  8982 net.cpp:157] Top shape: 1 16 320 528 (2703360)
I1018 23:07:11.686389  8982 net.cpp:165] Memory required for data: 40550400
I1018 23:07:11.686391  8982 layer_factory.hpp:77] Creating layer conv1_1/neg
I1018 23:07:11.686396  8982 net.cpp:100] Creating Layer conv1_1/neg
I1018 23:07:11.686399  8982 net.cpp:434] conv1_1/neg <- conv1_1/conv_conv1_1/conv_0_split_0
I1018 23:07:11.686403  8982 net.cpp:408] conv1_1/neg -> conv1_1/neg
1 16 320 528 
I1018 23:07:11.686419  8982 net.cpp:150] Setting up conv1_1/neg
I1018 23:07:11.686424  8982 net.cpp:157] Top shape: 1 16 320 528 (2703360)
I1018 23:07:11.686425  8982 net.cpp:165] Memory required for data: 51363840
I1018 23:07:11.686427  8982 layer_factory.hpp:77] Creating layer conv1_1/concat
I1018 23:07:11.686432  8982 net.cpp:100] Creating Layer conv1_1/concat
I1018 23:07:11.686434  8982 net.cpp:434] conv1_1/concat <- conv1_1/conv_conv1_1/conv_0_split_1
I1018 23:07:11.686437  8982 net.cpp:434] conv1_1/concat <- conv1_1/neg
I1018 23:07:11.686440  8982 net.cpp:408] conv1_1/concat -> conv1_1
1 32 320 528 
I1018 23:07:11.686456  8982 net.cpp:150] Setting up conv1_1/concat
I1018 23:07:11.686460  8982 net.cpp:157] Top shape: 1 32 320 528 (5406720)
I1018 23:07:11.686462  8982 net.cpp:165] Memory required for data: 72990720
I1018 23:07:11.686465  8982 layer_factory.hpp:77] Creating layer conv1_1/scale
I1018 23:07:11.686470  8982 net.cpp:100] Creating Layer conv1_1/scale
I1018 23:07:11.686471  8982 net.cpp:434] conv1_1/scale <- conv1_1
I1018 23:07:11.686475  8982 net.cpp:395] conv1_1/scale -> conv1_1 (in-place)
32 
I1018 23:07:11.686503  8982 layer_factory.hpp:77] Creating layer conv1_1/scale
32 
168960 
1 32 320 528 
32 
168960 
168960 
I1018 23:07:11.687204  8982 net.cpp:150] Setting up conv1_1/scale
I1018 23:07:11.687211  8982 net.cpp:157] Top shape: 1 32 320 528 (5406720)
I1018 23:07:11.687213  8982 net.cpp:165] Memory required for data: 94617600
I1018 23:07:11.687219  8982 layer_factory.hpp:77] Creating layer conv1_1/relu
I1018 23:07:11.687223  8982 net.cpp:100] Creating Layer conv1_1/relu
I1018 23:07:11.687227  8982 net.cpp:434] conv1_1/relu <- conv1_1
I1018 23:07:11.687229  8982 net.cpp:395] conv1_1/relu -> conv1_1 (in-place)
1 32 320 528 
I1018 23:07:11.687672  8982 net.cpp:150] Setting up conv1_1/relu
I1018 23:07:11.687678  8982 net.cpp:157] Top shape: 1 32 320 528 (5406720)
I1018 23:07:11.687680  8982 net.cpp:165] Memory required for data: 116244480
I1018 23:07:11.687683  8982 layer_factory.hpp:77] Creating layer pool1
I1018 23:07:11.687688  8982 net.cpp:100] Creating Layer pool1
I1018 23:07:11.687691  8982 net.cpp:434] pool1 <- conv1_1
I1018 23:07:11.687695  8982 net.cpp:408] pool1 -> pool1
1 32 160 264 
1 32 160 264 
I1018 23:07:11.687726  8982 net.cpp:150] Setting up pool1
I1018 23:07:11.687731  8982 net.cpp:157] Top shape: 1 32 160 264 (1351680)
I1018 23:07:11.687732  8982 net.cpp:165] Memory required for data: 121651200
I1018 23:07:11.687734  8982 layer_factory.hpp:77] Creating layer pool1_pool1_0_split
I1018 23:07:11.687739  8982 net.cpp:100] Creating Layer pool1_pool1_0_split
I1018 23:07:11.687742  8982 net.cpp:434] pool1_pool1_0_split <- pool1
I1018 23:07:11.687746  8982 net.cpp:408] pool1_pool1_0_split -> pool1_pool1_0_split_0
I1018 23:07:11.687750  8982 net.cpp:408] pool1_pool1_0_split -> pool1_pool1_0_split_1
1 32 160 264 
1 32 160 264 
I1018 23:07:11.687774  8982 net.cpp:150] Setting up pool1_pool1_0_split
I1018 23:07:11.687778  8982 net.cpp:157] Top shape: 1 32 160 264 (1351680)
I1018 23:07:11.687782  8982 net.cpp:157] Top shape: 1 32 160 264 (1351680)
I1018 23:07:11.687783  8982 net.cpp:165] Memory required for data: 132464640
I1018 23:07:11.687789  8982 layer_factory.hpp:77] Creating layer conv2_1/1/conv
I1018 23:07:11.687796  8982 net.cpp:100] Creating Layer conv2_1/1/conv
I1018 23:07:11.687799  8982 net.cpp:434] conv2_1/1/conv <- pool1_pool1_0_split_0
I1018 23:07:11.687803  8982 net.cpp:408] conv2_1/1/conv -> conv2_1/1
2 
2 
2 
2 
24 32 1 1 
24 
1 24 160 264 
3 
32 160 264 
42240 
I1018 23:07:11.688479  8982 net.cpp:150] Setting up conv2_1/1/conv
I1018 23:07:11.688488  8982 net.cpp:157] Top shape: 1 24 160 264 (1013760)
I1018 23:07:11.688490  8982 net.cpp:165] Memory required for data: 136519680
I1018 23:07:11.688498  8982 layer_factory.hpp:77] Creating layer conv2_1/1/relu
I1018 23:07:11.688501  8982 net.cpp:100] Creating Layer conv2_1/1/relu
I1018 23:07:11.688504  8982 net.cpp:434] conv2_1/1/relu <- conv2_1/1
I1018 23:07:11.688508  8982 net.cpp:395] conv2_1/1/relu -> conv2_1/1 (in-place)
1 24 160 264 
I1018 23:07:11.688623  8982 net.cpp:150] Setting up conv2_1/1/relu
I1018 23:07:11.688628  8982 net.cpp:157] Top shape: 1 24 160 264 (1013760)
I1018 23:07:11.688630  8982 net.cpp:165] Memory required for data: 140574720
I1018 23:07:11.688632  8982 layer_factory.hpp:77] Creating layer conv2_1/2/conv
I1018 23:07:11.688638  8982 net.cpp:100] Creating Layer conv2_1/2/conv
I1018 23:07:11.688642  8982 net.cpp:434] conv2_1/2/conv <- conv2_1/1
I1018 23:07:11.688645  8982 net.cpp:408] conv2_1/2/conv -> conv2_1/2/conv
2 
2 
2 
2 
24 24 3 3 
24 
1 24 160 264 
3 
216 160 264 
42240 
I1018 23:07:11.690382  8982 net.cpp:150] Setting up conv2_1/2/conv
I1018 23:07:11.690389  8982 net.cpp:157] Top shape: 1 24 160 264 (1013760)
I1018 23:07:11.690392  8982 net.cpp:165] Memory required for data: 144629760
I1018 23:07:11.690397  8982 layer_factory.hpp:77] Creating layer conv2_1/2/conv_conv2_1/2/conv_0_split
I1018 23:07:11.690402  8982 net.cpp:100] Creating Layer conv2_1/2/conv_conv2_1/2/conv_0_split
I1018 23:07:11.690404  8982 net.cpp:434] conv2_1/2/conv_conv2_1/2/conv_0_split <- conv2_1/2/conv
I1018 23:07:11.690408  8982 net.cpp:408] conv2_1/2/conv_conv2_1/2/conv_0_split -> conv2_1/2/conv_conv2_1/2/conv_0_split_0
I1018 23:07:11.690413  8982 net.cpp:408] conv2_1/2/conv_conv2_1/2/conv_0_split -> conv2_1/2/conv_conv2_1/2/conv_0_split_1
1 24 160 264 
1 24 160 264 
I1018 23:07:11.690443  8982 net.cpp:150] Setting up conv2_1/2/conv_conv2_1/2/conv_0_split
I1018 23:07:11.690448  8982 net.cpp:157] Top shape: 1 24 160 264 (1013760)
I1018 23:07:11.690450  8982 net.cpp:157] Top shape: 1 24 160 264 (1013760)
I1018 23:07:11.690452  8982 net.cpp:165] Memory required for data: 152739840
I1018 23:07:11.690454  8982 layer_factory.hpp:77] Creating layer conv2_1/2/neg
I1018 23:07:11.690459  8982 net.cpp:100] Creating Layer conv2_1/2/neg
I1018 23:07:11.690461  8982 net.cpp:434] conv2_1/2/neg <- conv2_1/2/conv_conv2_1/2/conv_0_split_0
I1018 23:07:11.690464  8982 net.cpp:408] conv2_1/2/neg -> conv2_1/2/neg
1 24 160 264 
I1018 23:07:11.690480  8982 net.cpp:150] Setting up conv2_1/2/neg
I1018 23:07:11.690484  8982 net.cpp:157] Top shape: 1 24 160 264 (1013760)
I1018 23:07:11.690486  8982 net.cpp:165] Memory required for data: 156794880
I1018 23:07:11.690488  8982 layer_factory.hpp:77] Creating layer conv2_1/2/concat
I1018 23:07:11.690492  8982 net.cpp:100] Creating Layer conv2_1/2/concat
I1018 23:07:11.690495  8982 net.cpp:434] conv2_1/2/concat <- conv2_1/2/conv_conv2_1/2/conv_0_split_1
I1018 23:07:11.690497  8982 net.cpp:434] conv2_1/2/concat <- conv2_1/2/neg
I1018 23:07:11.690501  8982 net.cpp:408] conv2_1/2/concat -> conv2_1/2
1 48 160 264 
I1018 23:07:11.690516  8982 net.cpp:150] Setting up conv2_1/2/concat
I1018 23:07:11.690537  8982 net.cpp:157] Top shape: 1 48 160 264 (2027520)
I1018 23:07:11.690539  8982 net.cpp:165] Memory required for data: 164904960
I1018 23:07:11.690541  8982 layer_factory.hpp:77] Creating layer conv2_1/2/scale
I1018 23:07:11.690546  8982 net.cpp:100] Creating Layer conv2_1/2/scale
I1018 23:07:11.690548  8982 net.cpp:434] conv2_1/2/scale <- conv2_1/2
I1018 23:07:11.690552  8982 net.cpp:395] conv2_1/2/scale -> conv2_1/2 (in-place)
48 
I1018 23:07:11.690596  8982 layer_factory.hpp:77] Creating layer conv2_1/2/scale
48 
42240 
1 48 160 264 
48 
42240 
42240 
I1018 23:07:11.690706  8982 net.cpp:150] Setting up conv2_1/2/scale
I1018 23:07:11.690711  8982 net.cpp:157] Top shape: 1 48 160 264 (2027520)
I1018 23:07:11.690712  8982 net.cpp:165] Memory required for data: 173015040
I1018 23:07:11.690718  8982 layer_factory.hpp:77] Creating layer conv2_1/2/relu
I1018 23:07:11.690723  8982 net.cpp:100] Creating Layer conv2_1/2/relu
I1018 23:07:11.690726  8982 net.cpp:434] conv2_1/2/relu <- conv2_1/2
I1018 23:07:11.690729  8982 net.cpp:395] conv2_1/2/relu -> conv2_1/2 (in-place)
1 48 160 264 
I1018 23:07:11.691171  8982 net.cpp:150] Setting up conv2_1/2/relu
I1018 23:07:11.691177  8982 net.cpp:157] Top shape: 1 48 160 264 (2027520)
I1018 23:07:11.691179  8982 net.cpp:165] Memory required for data: 181125120
I1018 23:07:11.691181  8982 layer_factory.hpp:77] Creating layer conv2_1/3/conv
I1018 23:07:11.691187  8982 net.cpp:100] Creating Layer conv2_1/3/conv
I1018 23:07:11.691190  8982 net.cpp:434] conv2_1/3/conv <- conv2_1/2
I1018 23:07:11.691195  8982 net.cpp:408] conv2_1/3/conv -> conv2_1/3
2 
2 
2 
2 
64 48 1 1 
64 
1 64 160 264 
3 
48 160 264 
42240 
I1018 23:07:11.691381  8982 net.cpp:150] Setting up conv2_1/3/conv
I1018 23:07:11.691386  8982 net.cpp:157] Top shape: 1 64 160 264 (2703360)
I1018 23:07:11.691390  8982 net.cpp:165] Memory required for data: 191938560
I1018 23:07:11.691393  8982 layer_factory.hpp:77] Creating layer conv2_1/proj
I1018 23:07:11.691398  8982 net.cpp:100] Creating Layer conv2_1/proj
I1018 23:07:11.691401  8982 net.cpp:434] conv2_1/proj <- pool1_pool1_0_split_1
I1018 23:07:11.691406  8982 net.cpp:408] conv2_1/proj -> conv2_1/proj
2 
2 
2 
2 
64 32 1 1 
64 
1 64 160 264 
3 
32 160 264 
42240 
I1018 23:07:11.691577  8982 net.cpp:150] Setting up conv2_1/proj
I1018 23:07:11.691582  8982 net.cpp:157] Top shape: 1 64 160 264 (2703360)
I1018 23:07:11.691584  8982 net.cpp:165] Memory required for data: 202752000
I1018 23:07:11.691589  8982 layer_factory.hpp:77] Creating layer conv2_1
I1018 23:07:11.691594  8982 net.cpp:100] Creating Layer conv2_1
I1018 23:07:11.691596  8982 net.cpp:434] conv2_1 <- conv2_1/3
I1018 23:07:11.691599  8982 net.cpp:434] conv2_1 <- conv2_1/proj
I1018 23:07:11.691603  8982 net.cpp:408] conv2_1 -> conv2_1
1 64 160 264 
I1018 23:07:11.691622  8982 net.cpp:150] Setting up conv2_1
I1018 23:07:11.691625  8982 net.cpp:157] Top shape: 1 64 160 264 (2703360)
I1018 23:07:11.691627  8982 net.cpp:165] Memory required for data: 213565440
I1018 23:07:11.691629  8982 layer_factory.hpp:77] Creating layer conv2_1_conv2_1_0_split
I1018 23:07:11.691633  8982 net.cpp:100] Creating Layer conv2_1_conv2_1_0_split
I1018 23:07:11.691635  8982 net.cpp:434] conv2_1_conv2_1_0_split <- conv2_1
I1018 23:07:11.691639  8982 net.cpp:408] conv2_1_conv2_1_0_split -> conv2_1_conv2_1_0_split_0
I1018 23:07:11.691643  8982 net.cpp:408] conv2_1_conv2_1_0_split -> conv2_1_conv2_1_0_split_1
1 64 160 264 
1 64 160 264 
I1018 23:07:11.691666  8982 net.cpp:150] Setting up conv2_1_conv2_1_0_split
I1018 23:07:11.691670  8982 net.cpp:157] Top shape: 1 64 160 264 (2703360)
I1018 23:07:11.691673  8982 net.cpp:157] Top shape: 1 64 160 264 (2703360)
I1018 23:07:11.691675  8982 net.cpp:165] Memory required for data: 235192320
I1018 23:07:11.691678  8982 layer_factory.hpp:77] Creating layer conv2_2/1/conv
I1018 23:07:11.691682  8982 net.cpp:100] Creating Layer conv2_2/1/conv
I1018 23:07:11.691685  8982 net.cpp:434] conv2_2/1/conv <- conv2_1_conv2_1_0_split_0
I1018 23:07:11.691689  8982 net.cpp:408] conv2_2/1/conv -> conv2_2/1
2 
2 
2 
2 
24 64 1 1 
24 
1 24 160 264 
3 
64 160 264 
42240 
I1018 23:07:11.692107  8982 net.cpp:150] Setting up conv2_2/1/conv
I1018 23:07:11.692116  8982 net.cpp:157] Top shape: 1 24 160 264 (1013760)
I1018 23:07:11.692119  8982 net.cpp:165] Memory required for data: 239247360
I1018 23:07:11.692123  8982 layer_factory.hpp:77] Creating layer conv2_2/1/relu
I1018 23:07:11.692128  8982 net.cpp:100] Creating Layer conv2_2/1/relu
I1018 23:07:11.692133  8982 net.cpp:434] conv2_2/1/relu <- conv2_2/1
I1018 23:07:11.692137  8982 net.cpp:395] conv2_2/1/relu -> conv2_2/1 (in-place)
1 24 160 264 
I1018 23:07:11.692255  8982 net.cpp:150] Setting up conv2_2/1/relu
I1018 23:07:11.692260  8982 net.cpp:157] Top shape: 1 24 160 264 (1013760)
I1018 23:07:11.692262  8982 net.cpp:165] Memory required for data: 243302400
I1018 23:07:11.692265  8982 layer_factory.hpp:77] Creating layer conv2_2/2/conv
I1018 23:07:11.692270  8982 net.cpp:100] Creating Layer conv2_2/2/conv
I1018 23:07:11.692273  8982 net.cpp:434] conv2_2/2/conv <- conv2_2/1
I1018 23:07:11.692277  8982 net.cpp:408] conv2_2/2/conv -> conv2_2/2/conv
2 
2 
2 
2 
24 24 3 3 
24 
1 24 160 264 
3 
216 160 264 
42240 
I1018 23:07:11.693770  8982 net.cpp:150] Setting up conv2_2/2/conv
I1018 23:07:11.693778  8982 net.cpp:157] Top shape: 1 24 160 264 (1013760)
I1018 23:07:11.693781  8982 net.cpp:165] Memory required for data: 247357440
I1018 23:07:11.693789  8982 layer_factory.hpp:77] Creating layer conv2_2/2/conv_conv2_2/2/conv_0_split
I1018 23:07:11.693794  8982 net.cpp:100] Creating Layer conv2_2/2/conv_conv2_2/2/conv_0_split
I1018 23:07:11.693796  8982 net.cpp:434] conv2_2/2/conv_conv2_2/2/conv_0_split <- conv2_2/2/conv
I1018 23:07:11.693800  8982 net.cpp:408] conv2_2/2/conv_conv2_2/2/conv_0_split -> conv2_2/2/conv_conv2_2/2/conv_0_split_0
I1018 23:07:11.693805  8982 net.cpp:408] conv2_2/2/conv_conv2_2/2/conv_0_split -> conv2_2/2/conv_conv2_2/2/conv_0_split_1
1 24 160 264 
1 24 160 264 
I1018 23:07:11.693835  8982 net.cpp:150] Setting up conv2_2/2/conv_conv2_2/2/conv_0_split
I1018 23:07:11.693838  8982 net.cpp:157] Top shape: 1 24 160 264 (1013760)
I1018 23:07:11.693841  8982 net.cpp:157] Top shape: 1 24 160 264 (1013760)
I1018 23:07:11.693843  8982 net.cpp:165] Memory required for data: 255467520
I1018 23:07:11.693845  8982 layer_factory.hpp:77] Creating layer conv2_2/2/neg
I1018 23:07:11.693850  8982 net.cpp:100] Creating Layer conv2_2/2/neg
I1018 23:07:11.693852  8982 net.cpp:434] conv2_2/2/neg <- conv2_2/2/conv_conv2_2/2/conv_0_split_0
I1018 23:07:11.693856  8982 net.cpp:408] conv2_2/2/neg -> conv2_2/2/neg
1 24 160 264 
I1018 23:07:11.693871  8982 net.cpp:150] Setting up conv2_2/2/neg
I1018 23:07:11.693876  8982 net.cpp:157] Top shape: 1 24 160 264 (1013760)
I1018 23:07:11.693877  8982 net.cpp:165] Memory required for data: 259522560
I1018 23:07:11.693879  8982 layer_factory.hpp:77] Creating layer conv2_2/2/concat
I1018 23:07:11.693883  8982 net.cpp:100] Creating Layer conv2_2/2/concat
I1018 23:07:11.693886  8982 net.cpp:434] conv2_2/2/concat <- conv2_2/2/conv_conv2_2/2/conv_0_split_1
I1018 23:07:11.693889  8982 net.cpp:434] conv2_2/2/concat <- conv2_2/2/neg
I1018 23:07:11.693892  8982 net.cpp:408] conv2_2/2/concat -> conv2_2/2
1 48 160 264 
I1018 23:07:11.693907  8982 net.cpp:150] Setting up conv2_2/2/concat
I1018 23:07:11.693912  8982 net.cpp:157] Top shape: 1 48 160 264 (2027520)
I1018 23:07:11.693913  8982 net.cpp:165] Memory required for data: 267632640
I1018 23:07:11.693915  8982 layer_factory.hpp:77] Creating layer conv2_2/2/scale
I1018 23:07:11.693919  8982 net.cpp:100] Creating Layer conv2_2/2/scale
I1018 23:07:11.693922  8982 net.cpp:434] conv2_2/2/scale <- conv2_2/2
I1018 23:07:11.693925  8982 net.cpp:395] conv2_2/2/scale -> conv2_2/2 (in-place)
48 
I1018 23:07:11.693951  8982 layer_factory.hpp:77] Creating layer conv2_2/2/scale
48 
42240 
1 48 160 264 
48 
42240 
42240 
I1018 23:07:11.694058  8982 net.cpp:150] Setting up conv2_2/2/scale
I1018 23:07:11.694062  8982 net.cpp:157] Top shape: 1 48 160 264 (2027520)
I1018 23:07:11.694064  8982 net.cpp:165] Memory required for data: 275742720
I1018 23:07:11.694068  8982 layer_factory.hpp:77] Creating layer conv2_2/2/relu
I1018 23:07:11.694072  8982 net.cpp:100] Creating Layer conv2_2/2/relu
I1018 23:07:11.694074  8982 net.cpp:434] conv2_2/2/relu <- conv2_2/2
I1018 23:07:11.694078  8982 net.cpp:395] conv2_2/2/relu -> conv2_2/2 (in-place)
1 48 160 264 
I1018 23:07:11.694195  8982 net.cpp:150] Setting up conv2_2/2/relu
I1018 23:07:11.694200  8982 net.cpp:157] Top shape: 1 48 160 264 (2027520)
I1018 23:07:11.694205  8982 net.cpp:165] Memory required for data: 283852800
I1018 23:07:11.694207  8982 layer_factory.hpp:77] Creating layer conv2_2/3/conv
I1018 23:07:11.694213  8982 net.cpp:100] Creating Layer conv2_2/3/conv
I1018 23:07:11.694216  8982 net.cpp:434] conv2_2/3/conv <- conv2_2/2
I1018 23:07:11.694221  8982 net.cpp:408] conv2_2/3/conv -> conv2_2/3
2 
2 
2 
2 
64 48 1 1 
64 
1 64 160 264 
3 
48 160 264 
42240 
I1018 23:07:11.694402  8982 net.cpp:150] Setting up conv2_2/3/conv
I1018 23:07:11.694407  8982 net.cpp:157] Top shape: 1 64 160 264 (2703360)
I1018 23:07:11.694409  8982 net.cpp:165] Memory required for data: 294666240
I1018 23:07:11.694413  8982 layer_factory.hpp:77] Creating layer conv2_2/input
I1018 23:07:11.694417  8982 net.cpp:100] Creating Layer conv2_2/input
I1018 23:07:11.694420  8982 net.cpp:434] conv2_2/input <- conv2_1_conv2_1_0_split_1
I1018 23:07:11.694424  8982 net.cpp:408] conv2_2/input -> conv2_2/input
1 64 160 264 
I1018 23:07:11.694442  8982 net.cpp:150] Setting up conv2_2/input
I1018 23:07:11.694445  8982 net.cpp:157] Top shape: 1 64 160 264 (2703360)
I1018 23:07:11.694447  8982 net.cpp:165] Memory required for data: 305479680
I1018 23:07:11.694449  8982 layer_factory.hpp:77] Creating layer conv2_2
I1018 23:07:11.694453  8982 net.cpp:100] Creating Layer conv2_2
I1018 23:07:11.694456  8982 net.cpp:434] conv2_2 <- conv2_2/3
I1018 23:07:11.694459  8982 net.cpp:434] conv2_2 <- conv2_2/input
I1018 23:07:11.694463  8982 net.cpp:408] conv2_2 -> conv2_2
1 64 160 264 
I1018 23:07:11.694478  8982 net.cpp:150] Setting up conv2_2
I1018 23:07:11.694483  8982 net.cpp:157] Top shape: 1 64 160 264 (2703360)
I1018 23:07:11.694484  8982 net.cpp:165] Memory required for data: 316293120
I1018 23:07:11.694486  8982 layer_factory.hpp:77] Creating layer conv2_2_conv2_2_0_split
I1018 23:07:11.694492  8982 net.cpp:100] Creating Layer conv2_2_conv2_2_0_split
I1018 23:07:11.694495  8982 net.cpp:434] conv2_2_conv2_2_0_split <- conv2_2
I1018 23:07:11.694499  8982 net.cpp:408] conv2_2_conv2_2_0_split -> conv2_2_conv2_2_0_split_0
I1018 23:07:11.694504  8982 net.cpp:408] conv2_2_conv2_2_0_split -> conv2_2_conv2_2_0_split_1
1 64 160 264 
1 64 160 264 
I1018 23:07:11.694526  8982 net.cpp:150] Setting up conv2_2_conv2_2_0_split
I1018 23:07:11.694530  8982 net.cpp:157] Top shape: 1 64 160 264 (2703360)
I1018 23:07:11.694533  8982 net.cpp:157] Top shape: 1 64 160 264 (2703360)
I1018 23:07:11.694535  8982 net.cpp:165] Memory required for data: 337920000
I1018 23:07:11.694537  8982 layer_factory.hpp:77] Creating layer conv2_3/1/conv
I1018 23:07:11.694543  8982 net.cpp:100] Creating Layer conv2_3/1/conv
I1018 23:07:11.694546  8982 net.cpp:434] conv2_3/1/conv <- conv2_2_conv2_2_0_split_0
I1018 23:07:11.694550  8982 net.cpp:408] conv2_3/1/conv -> conv2_3/1
2 
2 
2 
2 
24 64 1 1 
24 
1 24 160 264 
3 
64 160 264 
42240 
I1018 23:07:11.694717  8982 net.cpp:150] Setting up conv2_3/1/conv
I1018 23:07:11.694722  8982 net.cpp:157] Top shape: 1 24 160 264 (1013760)
I1018 23:07:11.694725  8982 net.cpp:165] Memory required for data: 341975040
I1018 23:07:11.694728  8982 layer_factory.hpp:77] Creating layer conv2_3/1/relu
I1018 23:07:11.694732  8982 net.cpp:100] Creating Layer conv2_3/1/relu
I1018 23:07:11.694735  8982 net.cpp:434] conv2_3/1/relu <- conv2_3/1
I1018 23:07:11.694738  8982 net.cpp:395] conv2_3/1/relu -> conv2_3/1 (in-place)
1 24 160 264 
I1018 23:07:11.695178  8982 net.cpp:150] Setting up conv2_3/1/relu
I1018 23:07:11.695183  8982 net.cpp:157] Top shape: 1 24 160 264 (1013760)
I1018 23:07:11.695186  8982 net.cpp:165] Memory required for data: 346030080
I1018 23:07:11.695188  8982 layer_factory.hpp:77] Creating layer conv2_3/2/conv
I1018 23:07:11.695194  8982 net.cpp:100] Creating Layer conv2_3/2/conv
I1018 23:07:11.695197  8982 net.cpp:434] conv2_3/2/conv <- conv2_3/1
I1018 23:07:11.695201  8982 net.cpp:408] conv2_3/2/conv -> conv2_3/2/conv
2 
2 
2 
2 
24 24 3 3 
24 
1 24 160 264 
3 
216 160 264 
42240 
I1018 23:07:11.696945  8982 net.cpp:150] Setting up conv2_3/2/conv
I1018 23:07:11.696955  8982 net.cpp:157] Top shape: 1 24 160 264 (1013760)
I1018 23:07:11.696960  8982 net.cpp:165] Memory required for data: 350085120
I1018 23:07:11.696966  8982 layer_factory.hpp:77] Creating layer conv2_3/2/conv_conv2_3/2/conv_0_split
I1018 23:07:11.696970  8982 net.cpp:100] Creating Layer conv2_3/2/conv_conv2_3/2/conv_0_split
I1018 23:07:11.696974  8982 net.cpp:434] conv2_3/2/conv_conv2_3/2/conv_0_split <- conv2_3/2/conv
I1018 23:07:11.696977  8982 net.cpp:408] conv2_3/2/conv_conv2_3/2/conv_0_split -> conv2_3/2/conv_conv2_3/2/conv_0_split_0
I1018 23:07:11.696983  8982 net.cpp:408] conv2_3/2/conv_conv2_3/2/conv_0_split -> conv2_3/2/conv_conv2_3/2/conv_0_split_1
1 24 160 264 
1 24 160 264 
I1018 23:07:11.697013  8982 net.cpp:150] Setting up conv2_3/2/conv_conv2_3/2/conv_0_split
I1018 23:07:11.697018  8982 net.cpp:157] Top shape: 1 24 160 264 (1013760)
I1018 23:07:11.697021  8982 net.cpp:157] Top shape: 1 24 160 264 (1013760)
I1018 23:07:11.697023  8982 net.cpp:165] Memory required for data: 358195200
I1018 23:07:11.697026  8982 layer_factory.hpp:77] Creating layer conv2_3/2/neg
I1018 23:07:11.697029  8982 net.cpp:100] Creating Layer conv2_3/2/neg
I1018 23:07:11.697032  8982 net.cpp:434] conv2_3/2/neg <- conv2_3/2/conv_conv2_3/2/conv_0_split_0
I1018 23:07:11.697036  8982 net.cpp:408] conv2_3/2/neg -> conv2_3/2/neg
1 24 160 264 
I1018 23:07:11.697051  8982 net.cpp:150] Setting up conv2_3/2/neg
I1018 23:07:11.697054  8982 net.cpp:157] Top shape: 1 24 160 264 (1013760)
I1018 23:07:11.697057  8982 net.cpp:165] Memory required for data: 362250240
I1018 23:07:11.697058  8982 layer_factory.hpp:77] Creating layer conv2_3/2/concat
I1018 23:07:11.697062  8982 net.cpp:100] Creating Layer conv2_3/2/concat
I1018 23:07:11.697065  8982 net.cpp:434] conv2_3/2/concat <- conv2_3/2/conv_conv2_3/2/conv_0_split_1
I1018 23:07:11.697068  8982 net.cpp:434] conv2_3/2/concat <- conv2_3/2/neg
I1018 23:07:11.697072  8982 net.cpp:408] conv2_3/2/concat -> conv2_3/2
1 48 160 264 
I1018 23:07:11.697087  8982 net.cpp:150] Setting up conv2_3/2/concat
I1018 23:07:11.697089  8982 net.cpp:157] Top shape: 1 48 160 264 (2027520)
I1018 23:07:11.697093  8982 net.cpp:165] Memory required for data: 370360320
I1018 23:07:11.697094  8982 layer_factory.hpp:77] Creating layer conv2_3/2/scale
I1018 23:07:11.697098  8982 net.cpp:100] Creating Layer conv2_3/2/scale
I1018 23:07:11.697101  8982 net.cpp:434] conv2_3/2/scale <- conv2_3/2
I1018 23:07:11.697104  8982 net.cpp:395] conv2_3/2/scale -> conv2_3/2 (in-place)
48 
I1018 23:07:11.697130  8982 layer_factory.hpp:77] Creating layer conv2_3/2/scale
48 
42240 
1 48 160 264 
48 
42240 
42240 
I1018 23:07:11.697237  8982 net.cpp:150] Setting up conv2_3/2/scale
I1018 23:07:11.697242  8982 net.cpp:157] Top shape: 1 48 160 264 (2027520)
I1018 23:07:11.697243  8982 net.cpp:165] Memory required for data: 378470400
I1018 23:07:11.697247  8982 layer_factory.hpp:77] Creating layer conv2_3/2/relu
I1018 23:07:11.697252  8982 net.cpp:100] Creating Layer conv2_3/2/relu
I1018 23:07:11.697254  8982 net.cpp:434] conv2_3/2/relu <- conv2_3/2
I1018 23:07:11.697257  8982 net.cpp:395] conv2_3/2/relu -> conv2_3/2 (in-place)
1 48 160 264 
I1018 23:07:11.697372  8982 net.cpp:150] Setting up conv2_3/2/relu
I1018 23:07:11.697377  8982 net.cpp:157] Top shape: 1 48 160 264 (2027520)
I1018 23:07:11.697379  8982 net.cpp:165] Memory required for data: 386580480
I1018 23:07:11.697382  8982 layer_factory.hpp:77] Creating layer conv2_3/3/conv
I1018 23:07:11.697388  8982 net.cpp:100] Creating Layer conv2_3/3/conv
I1018 23:07:11.697391  8982 net.cpp:434] conv2_3/3/conv <- conv2_3/2
I1018 23:07:11.697396  8982 net.cpp:408] conv2_3/3/conv -> conv2_3/3
2 
2 
2 
2 
64 48 1 1 
64 
1 64 160 264 
3 
48 160 264 
42240 
I1018 23:07:11.697582  8982 net.cpp:150] Setting up conv2_3/3/conv
I1018 23:07:11.697587  8982 net.cpp:157] Top shape: 1 64 160 264 (2703360)
I1018 23:07:11.697589  8982 net.cpp:165] Memory required for data: 397393920
I1018 23:07:11.697593  8982 layer_factory.hpp:77] Creating layer conv2_3/input
I1018 23:07:11.697597  8982 net.cpp:100] Creating Layer conv2_3/input
I1018 23:07:11.697603  8982 net.cpp:434] conv2_3/input <- conv2_2_conv2_2_0_split_1
I1018 23:07:11.697607  8982 net.cpp:408] conv2_3/input -> conv2_3/input
1 64 160 264 
I1018 23:07:11.697625  8982 net.cpp:150] Setting up conv2_3/input
I1018 23:07:11.697628  8982 net.cpp:157] Top shape: 1 64 160 264 (2703360)
I1018 23:07:11.697631  8982 net.cpp:165] Memory required for data: 408207360
I1018 23:07:11.697633  8982 layer_factory.hpp:77] Creating layer conv2_3
I1018 23:07:11.697638  8982 net.cpp:100] Creating Layer conv2_3
I1018 23:07:11.697639  8982 net.cpp:434] conv2_3 <- conv2_3/3
I1018 23:07:11.697643  8982 net.cpp:434] conv2_3 <- conv2_3/input
I1018 23:07:11.697646  8982 net.cpp:408] conv2_3 -> conv2_3
1 64 160 264 
I1018 23:07:11.697662  8982 net.cpp:150] Setting up conv2_3
I1018 23:07:11.697666  8982 net.cpp:157] Top shape: 1 64 160 264 (2703360)
I1018 23:07:11.697669  8982 net.cpp:165] Memory required for data: 419020800
I1018 23:07:11.697670  8982 layer_factory.hpp:77] Creating layer conv2_3_conv2_3_0_split
I1018 23:07:11.697674  8982 net.cpp:100] Creating Layer conv2_3_conv2_3_0_split
I1018 23:07:11.697676  8982 net.cpp:434] conv2_3_conv2_3_0_split <- conv2_3
I1018 23:07:11.697680  8982 net.cpp:408] conv2_3_conv2_3_0_split -> conv2_3_conv2_3_0_split_0
I1018 23:07:11.697685  8982 net.cpp:408] conv2_3_conv2_3_0_split -> conv2_3_conv2_3_0_split_1
1 64 160 264 
1 64 160 264 
I1018 23:07:11.697708  8982 net.cpp:150] Setting up conv2_3_conv2_3_0_split
I1018 23:07:11.697711  8982 net.cpp:157] Top shape: 1 64 160 264 (2703360)
I1018 23:07:11.697715  8982 net.cpp:157] Top shape: 1 64 160 264 (2703360)
I1018 23:07:11.697716  8982 net.cpp:165] Memory required for data: 440647680
I1018 23:07:11.697718  8982 layer_factory.hpp:77] Creating layer conv3_1/1/conv
I1018 23:07:11.697724  8982 net.cpp:100] Creating Layer conv3_1/1/conv
I1018 23:07:11.697726  8982 net.cpp:434] conv3_1/1/conv <- conv2_3_conv2_3_0_split_0
I1018 23:07:11.697731  8982 net.cpp:408] conv3_1/1/conv -> conv3_1/1
2 
2 
2 
2 
48 64 1 1 
48 
1 48 80 132 
3 
64 80 132 
10560 
I1018 23:07:11.697901  8982 net.cpp:150] Setting up conv3_1/1/conv
I1018 23:07:11.697904  8982 net.cpp:157] Top shape: 1 48 80 132 (506880)
I1018 23:07:11.697907  8982 net.cpp:165] Memory required for data: 442675200
I1018 23:07:11.697911  8982 layer_factory.hpp:77] Creating layer conv3_1/1/relu
I1018 23:07:11.697914  8982 net.cpp:100] Creating Layer conv3_1/1/relu
I1018 23:07:11.697917  8982 net.cpp:434] conv3_1/1/relu <- conv3_1/1
I1018 23:07:11.697921  8982 net.cpp:395] conv3_1/1/relu -> conv3_1/1 (in-place)
1 48 80 132 
I1018 23:07:11.698361  8982 net.cpp:150] Setting up conv3_1/1/relu
I1018 23:07:11.698367  8982 net.cpp:157] Top shape: 1 48 80 132 (506880)
I1018 23:07:11.698369  8982 net.cpp:165] Memory required for data: 444702720
I1018 23:07:11.698372  8982 layer_factory.hpp:77] Creating layer conv3_1/2/conv
I1018 23:07:11.698379  8982 net.cpp:100] Creating Layer conv3_1/2/conv
I1018 23:07:11.698381  8982 net.cpp:434] conv3_1/2/conv <- conv3_1/1
I1018 23:07:11.698385  8982 net.cpp:408] conv3_1/2/conv -> conv3_1/2/conv
2 
2 
2 
2 
48 48 3 3 
48 
1 48 80 132 
3 
432 80 132 
10560 
I1018 23:07:11.699932  8982 net.cpp:150] Setting up conv3_1/2/conv
I1018 23:07:11.699940  8982 net.cpp:157] Top shape: 1 48 80 132 (506880)
I1018 23:07:11.699944  8982 net.cpp:165] Memory required for data: 446730240
I1018 23:07:11.699950  8982 layer_factory.hpp:77] Creating layer conv3_1/2/conv_conv3_1/2/conv_0_split
I1018 23:07:11.699955  8982 net.cpp:100] Creating Layer conv3_1/2/conv_conv3_1/2/conv_0_split
I1018 23:07:11.699959  8982 net.cpp:434] conv3_1/2/conv_conv3_1/2/conv_0_split <- conv3_1/2/conv
I1018 23:07:11.699962  8982 net.cpp:408] conv3_1/2/conv_conv3_1/2/conv_0_split -> conv3_1/2/conv_conv3_1/2/conv_0_split_0
I1018 23:07:11.699967  8982 net.cpp:408] conv3_1/2/conv_conv3_1/2/conv_0_split -> conv3_1/2/conv_conv3_1/2/conv_0_split_1
1 48 80 132 
1 48 80 132 
I1018 23:07:11.699998  8982 net.cpp:150] Setting up conv3_1/2/conv_conv3_1/2/conv_0_split
I1018 23:07:11.700002  8982 net.cpp:157] Top shape: 1 48 80 132 (506880)
I1018 23:07:11.700008  8982 net.cpp:157] Top shape: 1 48 80 132 (506880)
I1018 23:07:11.700011  8982 net.cpp:165] Memory required for data: 450785280
I1018 23:07:11.700013  8982 layer_factory.hpp:77] Creating layer conv3_1/2/neg
I1018 23:07:11.700017  8982 net.cpp:100] Creating Layer conv3_1/2/neg
I1018 23:07:11.700019  8982 net.cpp:434] conv3_1/2/neg <- conv3_1/2/conv_conv3_1/2/conv_0_split_0
I1018 23:07:11.700023  8982 net.cpp:408] conv3_1/2/neg -> conv3_1/2/neg
1 48 80 132 
I1018 23:07:11.700040  8982 net.cpp:150] Setting up conv3_1/2/neg
I1018 23:07:11.700043  8982 net.cpp:157] Top shape: 1 48 80 132 (506880)
I1018 23:07:11.700047  8982 net.cpp:165] Memory required for data: 452812800
I1018 23:07:11.700048  8982 layer_factory.hpp:77] Creating layer conv3_1/2/concat
I1018 23:07:11.700052  8982 net.cpp:100] Creating Layer conv3_1/2/concat
I1018 23:07:11.700054  8982 net.cpp:434] conv3_1/2/concat <- conv3_1/2/conv_conv3_1/2/conv_0_split_1
I1018 23:07:11.700057  8982 net.cpp:434] conv3_1/2/concat <- conv3_1/2/neg
I1018 23:07:11.700062  8982 net.cpp:408] conv3_1/2/concat -> conv3_1/2
1 96 80 132 
I1018 23:07:11.700095  8982 net.cpp:150] Setting up conv3_1/2/concat
I1018 23:07:11.700100  8982 net.cpp:157] Top shape: 1 96 80 132 (1013760)
I1018 23:07:11.700103  8982 net.cpp:165] Memory required for data: 456867840
I1018 23:07:11.700105  8982 layer_factory.hpp:77] Creating layer conv3_1/2/scale
I1018 23:07:11.700109  8982 net.cpp:100] Creating Layer conv3_1/2/scale
I1018 23:07:11.700112  8982 net.cpp:434] conv3_1/2/scale <- conv3_1/2
I1018 23:07:11.700116  8982 net.cpp:395] conv3_1/2/scale -> conv3_1/2 (in-place)
96 
I1018 23:07:11.700145  8982 layer_factory.hpp:77] Creating layer conv3_1/2/scale
96 
10560 
1 96 80 132 
96 
10560 
10560 
I1018 23:07:11.700239  8982 net.cpp:150] Setting up conv3_1/2/scale
I1018 23:07:11.700243  8982 net.cpp:157] Top shape: 1 96 80 132 (1013760)
I1018 23:07:11.700245  8982 net.cpp:165] Memory required for data: 460922880
I1018 23:07:11.700249  8982 layer_factory.hpp:77] Creating layer conv3_1/2/relu
I1018 23:07:11.700253  8982 net.cpp:100] Creating Layer conv3_1/2/relu
I1018 23:07:11.700255  8982 net.cpp:434] conv3_1/2/relu <- conv3_1/2
I1018 23:07:11.700259  8982 net.cpp:395] conv3_1/2/relu -> conv3_1/2 (in-place)
1 96 80 132 
I1018 23:07:11.700373  8982 net.cpp:150] Setting up conv3_1/2/relu
I1018 23:07:11.700378  8982 net.cpp:157] Top shape: 1 96 80 132 (1013760)
I1018 23:07:11.700381  8982 net.cpp:165] Memory required for data: 464977920
I1018 23:07:11.700382  8982 layer_factory.hpp:77] Creating layer conv3_1/3/conv
I1018 23:07:11.700388  8982 net.cpp:100] Creating Layer conv3_1/3/conv
I1018 23:07:11.700392  8982 net.cpp:434] conv3_1/3/conv <- conv3_1/2
I1018 23:07:11.700395  8982 net.cpp:408] conv3_1/3/conv -> conv3_1/3
2 
2 
2 
2 
128 96 1 1 
128 
1 128 80 132 
3 
96 80 132 
10560 
I1018 23:07:11.700606  8982 net.cpp:150] Setting up conv3_1/3/conv
I1018 23:07:11.700628  8982 net.cpp:157] Top shape: 1 128 80 132 (1351680)
I1018 23:07:11.700629  8982 net.cpp:165] Memory required for data: 470384640
I1018 23:07:11.700634  8982 layer_factory.hpp:77] Creating layer conv3_1/proj
I1018 23:07:11.700639  8982 net.cpp:100] Creating Layer conv3_1/proj
I1018 23:07:11.700654  8982 net.cpp:434] conv3_1/proj <- conv2_3_conv2_3_0_split_1
I1018 23:07:11.700659  8982 net.cpp:408] conv3_1/proj -> conv3_1/proj
2 
2 
2 
2 
128 64 1 1 
128 
1 128 80 132 
3 
64 80 132 
10560 
I1018 23:07:11.700845  8982 net.cpp:150] Setting up conv3_1/proj
I1018 23:07:11.700850  8982 net.cpp:157] Top shape: 1 128 80 132 (1351680)
I1018 23:07:11.700851  8982 net.cpp:165] Memory required for data: 475791360
I1018 23:07:11.700855  8982 layer_factory.hpp:77] Creating layer conv3_1
I1018 23:07:11.700860  8982 net.cpp:100] Creating Layer conv3_1
I1018 23:07:11.700862  8982 net.cpp:434] conv3_1 <- conv3_1/3
I1018 23:07:11.700865  8982 net.cpp:434] conv3_1 <- conv3_1/proj
I1018 23:07:11.700870  8982 net.cpp:408] conv3_1 -> conv3_1
1 128 80 132 
I1018 23:07:11.700886  8982 net.cpp:150] Setting up conv3_1
I1018 23:07:11.700893  8982 net.cpp:157] Top shape: 1 128 80 132 (1351680)
I1018 23:07:11.700896  8982 net.cpp:165] Memory required for data: 481198080
I1018 23:07:11.700898  8982 layer_factory.hpp:77] Creating layer conv3_1_conv3_1_0_split
I1018 23:07:11.700902  8982 net.cpp:100] Creating Layer conv3_1_conv3_1_0_split
I1018 23:07:11.700904  8982 net.cpp:434] conv3_1_conv3_1_0_split <- conv3_1
I1018 23:07:11.700908  8982 net.cpp:408] conv3_1_conv3_1_0_split -> conv3_1_conv3_1_0_split_0
I1018 23:07:11.700912  8982 net.cpp:408] conv3_1_conv3_1_0_split -> conv3_1_conv3_1_0_split_1
1 128 80 132 
1 128 80 132 
I1018 23:07:11.700937  8982 net.cpp:150] Setting up conv3_1_conv3_1_0_split
I1018 23:07:11.700940  8982 net.cpp:157] Top shape: 1 128 80 132 (1351680)
I1018 23:07:11.700943  8982 net.cpp:157] Top shape: 1 128 80 132 (1351680)
I1018 23:07:11.700945  8982 net.cpp:165] Memory required for data: 492011520
I1018 23:07:11.700948  8982 layer_factory.hpp:77] Creating layer conv3_2/1/conv
I1018 23:07:11.700953  8982 net.cpp:100] Creating Layer conv3_2/1/conv
I1018 23:07:11.700955  8982 net.cpp:434] conv3_2/1/conv <- conv3_1_conv3_1_0_split_0
I1018 23:07:11.700959  8982 net.cpp:408] conv3_2/1/conv -> conv3_2/1
2 
2 
2 
2 
48 128 1 1 
48 
1 48 80 132 
3 
128 80 132 
10560 
I1018 23:07:11.701139  8982 net.cpp:150] Setting up conv3_2/1/conv
I1018 23:07:11.701144  8982 net.cpp:157] Top shape: 1 48 80 132 (506880)
I1018 23:07:11.701146  8982 net.cpp:165] Memory required for data: 494039040
I1018 23:07:11.701150  8982 layer_factory.hpp:77] Creating layer conv3_2/1/relu
I1018 23:07:11.701154  8982 net.cpp:100] Creating Layer conv3_2/1/relu
I1018 23:07:11.701156  8982 net.cpp:434] conv3_2/1/relu <- conv3_2/1
I1018 23:07:11.701159  8982 net.cpp:395] conv3_2/1/relu -> conv3_2/1 (in-place)
1 48 80 132 
I1018 23:07:11.701604  8982 net.cpp:150] Setting up conv3_2/1/relu
I1018 23:07:11.701611  8982 net.cpp:157] Top shape: 1 48 80 132 (506880)
I1018 23:07:11.701612  8982 net.cpp:165] Memory required for data: 496066560
I1018 23:07:11.701616  8982 layer_factory.hpp:77] Creating layer conv3_2/2/conv
I1018 23:07:11.701622  8982 net.cpp:100] Creating Layer conv3_2/2/conv
I1018 23:07:11.701624  8982 net.cpp:434] conv3_2/2/conv <- conv3_2/1
I1018 23:07:11.701628  8982 net.cpp:408] conv3_2/2/conv -> conv3_2/2/conv
2 
2 
2 
2 
48 48 3 3 
48 
1 48 80 132 
3 
432 80 132 
10560 
I1018 23:07:11.702854  8982 net.cpp:150] Setting up conv3_2/2/conv
I1018 23:07:11.702862  8982 net.cpp:157] Top shape: 1 48 80 132 (506880)
I1018 23:07:11.702864  8982 net.cpp:165] Memory required for data: 498094080
I1018 23:07:11.702869  8982 layer_factory.hpp:77] Creating layer conv3_2/2/conv_conv3_2/2/conv_0_split
I1018 23:07:11.702873  8982 net.cpp:100] Creating Layer conv3_2/2/conv_conv3_2/2/conv_0_split
I1018 23:07:11.702877  8982 net.cpp:434] conv3_2/2/conv_conv3_2/2/conv_0_split <- conv3_2/2/conv
I1018 23:07:11.702880  8982 net.cpp:408] conv3_2/2/conv_conv3_2/2/conv_0_split -> conv3_2/2/conv_conv3_2/2/conv_0_split_0
I1018 23:07:11.702885  8982 net.cpp:408] conv3_2/2/conv_conv3_2/2/conv_0_split -> conv3_2/2/conv_conv3_2/2/conv_0_split_1
1 48 80 132 
1 48 80 132 
I1018 23:07:11.702913  8982 net.cpp:150] Setting up conv3_2/2/conv_conv3_2/2/conv_0_split
I1018 23:07:11.702917  8982 net.cpp:157] Top shape: 1 48 80 132 (506880)
I1018 23:07:11.702920  8982 net.cpp:157] Top shape: 1 48 80 132 (506880)
I1018 23:07:11.702922  8982 net.cpp:165] Memory required for data: 502149120
I1018 23:07:11.702925  8982 layer_factory.hpp:77] Creating layer conv3_2/2/neg
I1018 23:07:11.702929  8982 net.cpp:100] Creating Layer conv3_2/2/neg
I1018 23:07:11.702931  8982 net.cpp:434] conv3_2/2/neg <- conv3_2/2/conv_conv3_2/2/conv_0_split_0
I1018 23:07:11.702935  8982 net.cpp:408] conv3_2/2/neg -> conv3_2/2/neg
1 48 80 132 
I1018 23:07:11.702950  8982 net.cpp:150] Setting up conv3_2/2/neg
I1018 23:07:11.702955  8982 net.cpp:157] Top shape: 1 48 80 132 (506880)
I1018 23:07:11.702956  8982 net.cpp:165] Memory required for data: 504176640
I1018 23:07:11.702958  8982 layer_factory.hpp:77] Creating layer conv3_2/2/concat
I1018 23:07:11.702965  8982 net.cpp:100] Creating Layer conv3_2/2/concat
I1018 23:07:11.702968  8982 net.cpp:434] conv3_2/2/concat <- conv3_2/2/conv_conv3_2/2/conv_0_split_1
I1018 23:07:11.702971  8982 net.cpp:434] conv3_2/2/concat <- conv3_2/2/neg
I1018 23:07:11.702975  8982 net.cpp:408] conv3_2/2/concat -> conv3_2/2
1 96 80 132 
I1018 23:07:11.702991  8982 net.cpp:150] Setting up conv3_2/2/concat
I1018 23:07:11.702994  8982 net.cpp:157] Top shape: 1 96 80 132 (1013760)
I1018 23:07:11.702996  8982 net.cpp:165] Memory required for data: 508231680
I1018 23:07:11.702999  8982 layer_factory.hpp:77] Creating layer conv3_2/2/scale
I1018 23:07:11.703003  8982 net.cpp:100] Creating Layer conv3_2/2/scale
I1018 23:07:11.703006  8982 net.cpp:434] conv3_2/2/scale <- conv3_2/2
I1018 23:07:11.703009  8982 net.cpp:395] conv3_2/2/scale -> conv3_2/2 (in-place)
96 
I1018 23:07:11.703035  8982 layer_factory.hpp:77] Creating layer conv3_2/2/scale
96 
10560 
1 96 80 132 
96 
10560 
10560 
I1018 23:07:11.703127  8982 net.cpp:150] Setting up conv3_2/2/scale
I1018 23:07:11.703131  8982 net.cpp:157] Top shape: 1 96 80 132 (1013760)
I1018 23:07:11.703133  8982 net.cpp:165] Memory required for data: 512286720
I1018 23:07:11.703137  8982 layer_factory.hpp:77] Creating layer conv3_2/2/relu
I1018 23:07:11.703145  8982 net.cpp:100] Creating Layer conv3_2/2/relu
I1018 23:07:11.703147  8982 net.cpp:434] conv3_2/2/relu <- conv3_2/2
I1018 23:07:11.703150  8982 net.cpp:395] conv3_2/2/relu -> conv3_2/2 (in-place)
1 96 80 132 
I1018 23:07:11.703261  8982 net.cpp:150] Setting up conv3_2/2/relu
I1018 23:07:11.703266  8982 net.cpp:157] Top shape: 1 96 80 132 (1013760)
I1018 23:07:11.703269  8982 net.cpp:165] Memory required for data: 516341760
I1018 23:07:11.703271  8982 layer_factory.hpp:77] Creating layer conv3_2/3/conv
I1018 23:07:11.703276  8982 net.cpp:100] Creating Layer conv3_2/3/conv
I1018 23:07:11.703279  8982 net.cpp:434] conv3_2/3/conv <- conv3_2/2
I1018 23:07:11.703284  8982 net.cpp:408] conv3_2/3/conv -> conv3_2/3
2 
2 
2 
2 
128 96 1 1 
128 
1 128 80 132 
3 
96 80 132 
10560 
I1018 23:07:11.703495  8982 net.cpp:150] Setting up conv3_2/3/conv
I1018 23:07:11.703500  8982 net.cpp:157] Top shape: 1 128 80 132 (1351680)
I1018 23:07:11.703502  8982 net.cpp:165] Memory required for data: 521748480
I1018 23:07:11.703506  8982 layer_factory.hpp:77] Creating layer conv3_2/input
I1018 23:07:11.703510  8982 net.cpp:100] Creating Layer conv3_2/input
I1018 23:07:11.703513  8982 net.cpp:434] conv3_2/input <- conv3_1_conv3_1_0_split_1
I1018 23:07:11.703517  8982 net.cpp:408] conv3_2/input -> conv3_2/input
1 128 80 132 
I1018 23:07:11.703533  8982 net.cpp:150] Setting up conv3_2/input
I1018 23:07:11.703537  8982 net.cpp:157] Top shape: 1 128 80 132 (1351680)
I1018 23:07:11.703539  8982 net.cpp:165] Memory required for data: 527155200
I1018 23:07:11.703542  8982 layer_factory.hpp:77] Creating layer conv3_2
I1018 23:07:11.703547  8982 net.cpp:100] Creating Layer conv3_2
I1018 23:07:11.703548  8982 net.cpp:434] conv3_2 <- conv3_2/3
I1018 23:07:11.703552  8982 net.cpp:434] conv3_2 <- conv3_2/input
I1018 23:07:11.703555  8982 net.cpp:408] conv3_2 -> conv3_2
1 128 80 132 
I1018 23:07:11.703572  8982 net.cpp:150] Setting up conv3_2
I1018 23:07:11.703574  8982 net.cpp:157] Top shape: 1 128 80 132 (1351680)
I1018 23:07:11.703577  8982 net.cpp:165] Memory required for data: 532561920
I1018 23:07:11.703579  8982 layer_factory.hpp:77] Creating layer conv3_2_conv3_2_0_split
I1018 23:07:11.703583  8982 net.cpp:100] Creating Layer conv3_2_conv3_2_0_split
I1018 23:07:11.703585  8982 net.cpp:434] conv3_2_conv3_2_0_split <- conv3_2
I1018 23:07:11.703588  8982 net.cpp:408] conv3_2_conv3_2_0_split -> conv3_2_conv3_2_0_split_0
I1018 23:07:11.703593  8982 net.cpp:408] conv3_2_conv3_2_0_split -> conv3_2_conv3_2_0_split_1
1 128 80 132 
1 128 80 132 
I1018 23:07:11.703616  8982 net.cpp:150] Setting up conv3_2_conv3_2_0_split
I1018 23:07:11.703620  8982 net.cpp:157] Top shape: 1 128 80 132 (1351680)
I1018 23:07:11.703624  8982 net.cpp:157] Top shape: 1 128 80 132 (1351680)
I1018 23:07:11.703627  8982 net.cpp:165] Memory required for data: 543375360
I1018 23:07:11.703630  8982 layer_factory.hpp:77] Creating layer conv3_3/1/conv
I1018 23:07:11.703635  8982 net.cpp:100] Creating Layer conv3_3/1/conv
I1018 23:07:11.703639  8982 net.cpp:434] conv3_3/1/conv <- conv3_2_conv3_2_0_split_0
I1018 23:07:11.703641  8982 net.cpp:408] conv3_3/1/conv -> conv3_3/1
2 
2 
2 
2 
48 128 1 1 
48 
1 48 80 132 
3 
128 80 132 
10560 
I1018 23:07:11.703827  8982 net.cpp:150] Setting up conv3_3/1/conv
I1018 23:07:11.703832  8982 net.cpp:157] Top shape: 1 48 80 132 (506880)
I1018 23:07:11.703835  8982 net.cpp:165] Memory required for data: 545402880
I1018 23:07:11.703840  8982 layer_factory.hpp:77] Creating layer conv3_3/1/relu
I1018 23:07:11.703842  8982 net.cpp:100] Creating Layer conv3_3/1/relu
I1018 23:07:11.703845  8982 net.cpp:434] conv3_3/1/relu <- conv3_3/1
I1018 23:07:11.703848  8982 net.cpp:395] conv3_3/1/relu -> conv3_3/1 (in-place)
1 48 80 132 
I1018 23:07:11.704296  8982 net.cpp:150] Setting up conv3_3/1/relu
I1018 23:07:11.704303  8982 net.cpp:157] Top shape: 1 48 80 132 (506880)
I1018 23:07:11.704304  8982 net.cpp:165] Memory required for data: 547430400
I1018 23:07:11.704308  8982 layer_factory.hpp:77] Creating layer conv3_3/2/conv
I1018 23:07:11.704313  8982 net.cpp:100] Creating Layer conv3_3/2/conv
I1018 23:07:11.704316  8982 net.cpp:434] conv3_3/2/conv <- conv3_3/1
I1018 23:07:11.704320  8982 net.cpp:408] conv3_3/2/conv -> conv3_3/2/conv
2 
2 
2 
2 
48 48 3 3 
48 
1 48 80 132 
3 
432 80 132 
10560 
I1018 23:07:11.705543  8982 net.cpp:150] Setting up conv3_3/2/conv
I1018 23:07:11.705550  8982 net.cpp:157] Top shape: 1 48 80 132 (506880)
I1018 23:07:11.705554  8982 net.cpp:165] Memory required for data: 549457920
I1018 23:07:11.705559  8982 layer_factory.hpp:77] Creating layer conv3_3/2/conv_conv3_3/2/conv_0_split
I1018 23:07:11.705562  8982 net.cpp:100] Creating Layer conv3_3/2/conv_conv3_3/2/conv_0_split
I1018 23:07:11.705565  8982 net.cpp:434] conv3_3/2/conv_conv3_3/2/conv_0_split <- conv3_3/2/conv
I1018 23:07:11.705569  8982 net.cpp:408] conv3_3/2/conv_conv3_3/2/conv_0_split -> conv3_3/2/conv_conv3_3/2/conv_0_split_0
I1018 23:07:11.705574  8982 net.cpp:408] conv3_3/2/conv_conv3_3/2/conv_0_split -> conv3_3/2/conv_conv3_3/2/conv_0_split_1
1 48 80 132 
1 48 80 132 
I1018 23:07:11.705603  8982 net.cpp:150] Setting up conv3_3/2/conv_conv3_3/2/conv_0_split
I1018 23:07:11.705607  8982 net.cpp:157] Top shape: 1 48 80 132 (506880)
I1018 23:07:11.705610  8982 net.cpp:157] Top shape: 1 48 80 132 (506880)
I1018 23:07:11.705612  8982 net.cpp:165] Memory required for data: 553512960
I1018 23:07:11.705615  8982 layer_factory.hpp:77] Creating layer conv3_3/2/neg
I1018 23:07:11.705618  8982 net.cpp:100] Creating Layer conv3_3/2/neg
I1018 23:07:11.705621  8982 net.cpp:434] conv3_3/2/neg <- conv3_3/2/conv_conv3_3/2/conv_0_split_0
I1018 23:07:11.705626  8982 net.cpp:408] conv3_3/2/neg -> conv3_3/2/neg
1 48 80 132 
I1018 23:07:11.705641  8982 net.cpp:150] Setting up conv3_3/2/neg
I1018 23:07:11.705644  8982 net.cpp:157] Top shape: 1 48 80 132 (506880)
I1018 23:07:11.705646  8982 net.cpp:165] Memory required for data: 555540480
I1018 23:07:11.705648  8982 layer_factory.hpp:77] Creating layer conv3_3/2/concat
I1018 23:07:11.705652  8982 net.cpp:100] Creating Layer conv3_3/2/concat
I1018 23:07:11.705654  8982 net.cpp:434] conv3_3/2/concat <- conv3_3/2/conv_conv3_3/2/conv_0_split_1
I1018 23:07:11.705658  8982 net.cpp:434] conv3_3/2/concat <- conv3_3/2/neg
I1018 23:07:11.705662  8982 net.cpp:408] conv3_3/2/concat -> conv3_3/2
1 96 80 132 
I1018 23:07:11.705677  8982 net.cpp:150] Setting up conv3_3/2/concat
I1018 23:07:11.705682  8982 net.cpp:157] Top shape: 1 96 80 132 (1013760)
I1018 23:07:11.705683  8982 net.cpp:165] Memory required for data: 559595520
I1018 23:07:11.705685  8982 layer_factory.hpp:77] Creating layer conv3_3/2/scale
I1018 23:07:11.705689  8982 net.cpp:100] Creating Layer conv3_3/2/scale
I1018 23:07:11.705693  8982 net.cpp:434] conv3_3/2/scale <- conv3_3/2
I1018 23:07:11.705695  8982 net.cpp:395] conv3_3/2/scale -> conv3_3/2 (in-place)
96 
I1018 23:07:11.705725  8982 layer_factory.hpp:77] Creating layer conv3_3/2/scale
96 
10560 
1 96 80 132 
96 
10560 
10560 
I1018 23:07:11.705817  8982 net.cpp:150] Setting up conv3_3/2/scale
I1018 23:07:11.705821  8982 net.cpp:157] Top shape: 1 96 80 132 (1013760)
I1018 23:07:11.705823  8982 net.cpp:165] Memory required for data: 563650560
I1018 23:07:11.705828  8982 layer_factory.hpp:77] Creating layer conv3_3/2/relu
I1018 23:07:11.705832  8982 net.cpp:100] Creating Layer conv3_3/2/relu
I1018 23:07:11.705834  8982 net.cpp:434] conv3_3/2/relu <- conv3_3/2
I1018 23:07:11.705837  8982 net.cpp:395] conv3_3/2/relu -> conv3_3/2 (in-place)
1 96 80 132 
I1018 23:07:11.706272  8982 net.cpp:150] Setting up conv3_3/2/relu
I1018 23:07:11.706279  8982 net.cpp:157] Top shape: 1 96 80 132 (1013760)
I1018 23:07:11.706281  8982 net.cpp:165] Memory required for data: 567705600
I1018 23:07:11.706284  8982 layer_factory.hpp:77] Creating layer conv3_3/3/conv
I1018 23:07:11.706290  8982 net.cpp:100] Creating Layer conv3_3/3/conv
I1018 23:07:11.706292  8982 net.cpp:434] conv3_3/3/conv <- conv3_3/2
I1018 23:07:11.706296  8982 net.cpp:408] conv3_3/3/conv -> conv3_3/3
2 
2 
2 
2 
128 96 1 1 
128 
1 128 80 132 
3 
96 80 132 
10560 
I1018 23:07:11.706511  8982 net.cpp:150] Setting up conv3_3/3/conv
I1018 23:07:11.706517  8982 net.cpp:157] Top shape: 1 128 80 132 (1351680)
I1018 23:07:11.706519  8982 net.cpp:165] Memory required for data: 573112320
I1018 23:07:11.706523  8982 layer_factory.hpp:77] Creating layer conv3_3/input
I1018 23:07:11.706527  8982 net.cpp:100] Creating Layer conv3_3/input
I1018 23:07:11.706531  8982 net.cpp:434] conv3_3/input <- conv3_2_conv3_2_0_split_1
I1018 23:07:11.706534  8982 net.cpp:408] conv3_3/input -> conv3_3/input
1 128 80 132 
I1018 23:07:11.706552  8982 net.cpp:150] Setting up conv3_3/input
I1018 23:07:11.706555  8982 net.cpp:157] Top shape: 1 128 80 132 (1351680)
I1018 23:07:11.706557  8982 net.cpp:165] Memory required for data: 578519040
I1018 23:07:11.706560  8982 layer_factory.hpp:77] Creating layer conv3_3
I1018 23:07:11.706564  8982 net.cpp:100] Creating Layer conv3_3
I1018 23:07:11.706567  8982 net.cpp:434] conv3_3 <- conv3_3/3
I1018 23:07:11.706569  8982 net.cpp:434] conv3_3 <- conv3_3/input
I1018 23:07:11.706573  8982 net.cpp:408] conv3_3 -> conv3_3
1 128 80 132 
I1018 23:07:11.706589  8982 net.cpp:150] Setting up conv3_3
I1018 23:07:11.706593  8982 net.cpp:157] Top shape: 1 128 80 132 (1351680)
I1018 23:07:11.706595  8982 net.cpp:165] Memory required for data: 583925760
I1018 23:07:11.706598  8982 layer_factory.hpp:77] Creating layer conv3_3_conv3_3_0_split
I1018 23:07:11.706601  8982 net.cpp:100] Creating Layer conv3_3_conv3_3_0_split
I1018 23:07:11.706604  8982 net.cpp:434] conv3_3_conv3_3_0_split <- conv3_3
I1018 23:07:11.706607  8982 net.cpp:408] conv3_3_conv3_3_0_split -> conv3_3_conv3_3_0_split_0
I1018 23:07:11.706611  8982 net.cpp:408] conv3_3_conv3_3_0_split -> conv3_3_conv3_3_0_split_1
1 128 80 132 
1 128 80 132 
I1018 23:07:11.706635  8982 net.cpp:150] Setting up conv3_3_conv3_3_0_split
I1018 23:07:11.706640  8982 net.cpp:157] Top shape: 1 128 80 132 (1351680)
I1018 23:07:11.706641  8982 net.cpp:157] Top shape: 1 128 80 132 (1351680)
I1018 23:07:11.706643  8982 net.cpp:165] Memory required for data: 594739200
I1018 23:07:11.706646  8982 layer_factory.hpp:77] Creating layer conv3_4/1/conv
I1018 23:07:11.706651  8982 net.cpp:100] Creating Layer conv3_4/1/conv
I1018 23:07:11.706653  8982 net.cpp:434] conv3_4/1/conv <- conv3_3_conv3_3_0_split_0
I1018 23:07:11.706657  8982 net.cpp:408] conv3_4/1/conv -> conv3_4/1
2 
2 
2 
2 
48 128 1 1 
48 
1 48 80 132 
3 
128 80 132 
10560 
I1018 23:07:11.706841  8982 net.cpp:150] Setting up conv3_4/1/conv
I1018 23:07:11.706846  8982 net.cpp:157] Top shape: 1 48 80 132 (506880)
I1018 23:07:11.706848  8982 net.cpp:165] Memory required for data: 596766720
I1018 23:07:11.706852  8982 layer_factory.hpp:77] Creating layer conv3_4/1/relu
I1018 23:07:11.706856  8982 net.cpp:100] Creating Layer conv3_4/1/relu
I1018 23:07:11.706859  8982 net.cpp:434] conv3_4/1/relu <- conv3_4/1
I1018 23:07:11.706866  8982 net.cpp:395] conv3_4/1/relu -> conv3_4/1 (in-place)
1 48 80 132 
I1018 23:07:11.706976  8982 net.cpp:150] Setting up conv3_4/1/relu
I1018 23:07:11.706981  8982 net.cpp:157] Top shape: 1 48 80 132 (506880)
I1018 23:07:11.706984  8982 net.cpp:165] Memory required for data: 598794240
I1018 23:07:11.706985  8982 layer_factory.hpp:77] Creating layer conv3_4/2/conv
I1018 23:07:11.706990  8982 net.cpp:100] Creating Layer conv3_4/2/conv
I1018 23:07:11.706993  8982 net.cpp:434] conv3_4/2/conv <- conv3_4/1
I1018 23:07:11.706997  8982 net.cpp:408] conv3_4/2/conv -> conv3_4/2/conv
2 
2 
2 
2 
48 48 3 3 
48 
1 48 80 132 
3 
432 80 132 
10560 
I1018 23:07:11.708461  8982 net.cpp:150] Setting up conv3_4/2/conv
I1018 23:07:11.708469  8982 net.cpp:157] Top shape: 1 48 80 132 (506880)
I1018 23:07:11.708472  8982 net.cpp:165] Memory required for data: 600821760
I1018 23:07:11.708477  8982 layer_factory.hpp:77] Creating layer conv3_4/2/conv_conv3_4/2/conv_0_split
I1018 23:07:11.708482  8982 net.cpp:100] Creating Layer conv3_4/2/conv_conv3_4/2/conv_0_split
I1018 23:07:11.708483  8982 net.cpp:434] conv3_4/2/conv_conv3_4/2/conv_0_split <- conv3_4/2/conv
I1018 23:07:11.708488  8982 net.cpp:408] conv3_4/2/conv_conv3_4/2/conv_0_split -> conv3_4/2/conv_conv3_4/2/conv_0_split_0
I1018 23:07:11.708493  8982 net.cpp:408] conv3_4/2/conv_conv3_4/2/conv_0_split -> conv3_4/2/conv_conv3_4/2/conv_0_split_1
1 48 80 132 
1 48 80 132 
I1018 23:07:11.708523  8982 net.cpp:150] Setting up conv3_4/2/conv_conv3_4/2/conv_0_split
I1018 23:07:11.708528  8982 net.cpp:157] Top shape: 1 48 80 132 (506880)
I1018 23:07:11.708531  8982 net.cpp:157] Top shape: 1 48 80 132 (506880)
I1018 23:07:11.708534  8982 net.cpp:165] Memory required for data: 604876800
I1018 23:07:11.708535  8982 layer_factory.hpp:77] Creating layer conv3_4/2/neg
I1018 23:07:11.708539  8982 net.cpp:100] Creating Layer conv3_4/2/neg
I1018 23:07:11.708542  8982 net.cpp:434] conv3_4/2/neg <- conv3_4/2/conv_conv3_4/2/conv_0_split_0
I1018 23:07:11.708545  8982 net.cpp:408] conv3_4/2/neg -> conv3_4/2/neg
1 48 80 132 
I1018 23:07:11.708561  8982 net.cpp:150] Setting up conv3_4/2/neg
I1018 23:07:11.708565  8982 net.cpp:157] Top shape: 1 48 80 132 (506880)
I1018 23:07:11.708567  8982 net.cpp:165] Memory required for data: 606904320
I1018 23:07:11.708570  8982 layer_factory.hpp:77] Creating layer conv3_4/2/concat
I1018 23:07:11.708573  8982 net.cpp:100] Creating Layer conv3_4/2/concat
I1018 23:07:11.708576  8982 net.cpp:434] conv3_4/2/concat <- conv3_4/2/conv_conv3_4/2/conv_0_split_1
I1018 23:07:11.708580  8982 net.cpp:434] conv3_4/2/concat <- conv3_4/2/neg
I1018 23:07:11.708582  8982 net.cpp:408] conv3_4/2/concat -> conv3_4/2
1 96 80 132 
I1018 23:07:11.708598  8982 net.cpp:150] Setting up conv3_4/2/concat
I1018 23:07:11.708601  8982 net.cpp:157] Top shape: 1 96 80 132 (1013760)
I1018 23:07:11.708603  8982 net.cpp:165] Memory required for data: 610959360
I1018 23:07:11.708606  8982 layer_factory.hpp:77] Creating layer conv3_4/2/scale
I1018 23:07:11.708611  8982 net.cpp:100] Creating Layer conv3_4/2/scale
I1018 23:07:11.708613  8982 net.cpp:434] conv3_4/2/scale <- conv3_4/2
I1018 23:07:11.708616  8982 net.cpp:395] conv3_4/2/scale -> conv3_4/2 (in-place)
96 
I1018 23:07:11.708642  8982 layer_factory.hpp:77] Creating layer conv3_4/2/scale
96 
10560 
1 96 80 132 
96 
10560 
10560 
I1018 23:07:11.708731  8982 net.cpp:150] Setting up conv3_4/2/scale
I1018 23:07:11.708736  8982 net.cpp:157] Top shape: 1 96 80 132 (1013760)
I1018 23:07:11.708739  8982 net.cpp:165] Memory required for data: 615014400
I1018 23:07:11.708742  8982 layer_factory.hpp:77] Creating layer conv3_4/2/relu
I1018 23:07:11.708746  8982 net.cpp:100] Creating Layer conv3_4/2/relu
I1018 23:07:11.708748  8982 net.cpp:434] conv3_4/2/relu <- conv3_4/2
I1018 23:07:11.708751  8982 net.cpp:395] conv3_4/2/relu -> conv3_4/2 (in-place)
1 96 80 132 
I1018 23:07:11.709188  8982 net.cpp:150] Setting up conv3_4/2/relu
I1018 23:07:11.709194  8982 net.cpp:157] Top shape: 1 96 80 132 (1013760)
I1018 23:07:11.709199  8982 net.cpp:165] Memory required for data: 619069440
I1018 23:07:11.709203  8982 layer_factory.hpp:77] Creating layer conv3_4/3/conv
I1018 23:07:11.709208  8982 net.cpp:100] Creating Layer conv3_4/3/conv
I1018 23:07:11.709211  8982 net.cpp:434] conv3_4/3/conv <- conv3_4/2
I1018 23:07:11.709215  8982 net.cpp:408] conv3_4/3/conv -> conv3_4/3
2 
2 
2 
2 
128 96 1 1 
128 
1 128 80 132 
3 
96 80 132 
10560 
I1018 23:07:11.709430  8982 net.cpp:150] Setting up conv3_4/3/conv
I1018 23:07:11.709435  8982 net.cpp:157] Top shape: 1 128 80 132 (1351680)
I1018 23:07:11.709439  8982 net.cpp:165] Memory required for data: 624476160
I1018 23:07:11.709442  8982 layer_factory.hpp:77] Creating layer conv3_4/input
I1018 23:07:11.709446  8982 net.cpp:100] Creating Layer conv3_4/input
I1018 23:07:11.709450  8982 net.cpp:434] conv3_4/input <- conv3_3_conv3_3_0_split_1
I1018 23:07:11.709453  8982 net.cpp:408] conv3_4/input -> conv3_4/input
1 128 80 132 
I1018 23:07:11.709470  8982 net.cpp:150] Setting up conv3_4/input
I1018 23:07:11.709475  8982 net.cpp:157] Top shape: 1 128 80 132 (1351680)
I1018 23:07:11.709476  8982 net.cpp:165] Memory required for data: 629882880
I1018 23:07:11.709478  8982 layer_factory.hpp:77] Creating layer conv3_4
I1018 23:07:11.709482  8982 net.cpp:100] Creating Layer conv3_4
I1018 23:07:11.709486  8982 net.cpp:434] conv3_4 <- conv3_4/3
I1018 23:07:11.709488  8982 net.cpp:434] conv3_4 <- conv3_4/input
I1018 23:07:11.709491  8982 net.cpp:408] conv3_4 -> conv3_4
1 128 80 132 
I1018 23:07:11.709508  8982 net.cpp:150] Setting up conv3_4
I1018 23:07:11.709511  8982 net.cpp:157] Top shape: 1 128 80 132 (1351680)
I1018 23:07:11.709514  8982 net.cpp:165] Memory required for data: 635289600
I1018 23:07:11.709517  8982 layer_factory.hpp:77] Creating layer conv3_4_conv3_4_0_split
I1018 23:07:11.709520  8982 net.cpp:100] Creating Layer conv3_4_conv3_4_0_split
I1018 23:07:11.709523  8982 net.cpp:434] conv3_4_conv3_4_0_split <- conv3_4
I1018 23:07:11.709527  8982 net.cpp:408] conv3_4_conv3_4_0_split -> conv3_4_conv3_4_0_split_0
I1018 23:07:11.709532  8982 net.cpp:408] conv3_4_conv3_4_0_split -> conv3_4_conv3_4_0_split_1
I1018 23:07:11.709535  8982 net.cpp:408] conv3_4_conv3_4_0_split -> conv3_4_conv3_4_0_split_2
I1018 23:07:11.709540  8982 net.cpp:408] conv3_4_conv3_4_0_split -> conv3_4_conv3_4_0_split_3
I1018 23:07:11.709544  8982 net.cpp:408] conv3_4_conv3_4_0_split -> conv3_4_conv3_4_0_split_4
I1018 23:07:11.709548  8982 net.cpp:408] conv3_4_conv3_4_0_split -> conv3_4_conv3_4_0_split_5
1 128 80 132 
1 128 80 132 
1 128 80 132 
1 128 80 132 
1 128 80 132 
1 128 80 132 
I1018 23:07:11.709607  8982 net.cpp:150] Setting up conv3_4_conv3_4_0_split
I1018 23:07:11.709611  8982 net.cpp:157] Top shape: 1 128 80 132 (1351680)
I1018 23:07:11.709614  8982 net.cpp:157] Top shape: 1 128 80 132 (1351680)
I1018 23:07:11.709617  8982 net.cpp:157] Top shape: 1 128 80 132 (1351680)
I1018 23:07:11.709619  8982 net.cpp:157] Top shape: 1 128 80 132 (1351680)
I1018 23:07:11.709622  8982 net.cpp:157] Top shape: 1 128 80 132 (1351680)
I1018 23:07:11.709625  8982 net.cpp:157] Top shape: 1 128 80 132 (1351680)
I1018 23:07:11.709627  8982 net.cpp:165] Memory required for data: 667729920
I1018 23:07:11.709630  8982 layer_factory.hpp:77] Creating layer conv4_1/incep/0/conv
I1018 23:07:11.709635  8982 net.cpp:100] Creating Layer conv4_1/incep/0/conv
I1018 23:07:11.709637  8982 net.cpp:434] conv4_1/incep/0/conv <- conv3_4_conv3_4_0_split_0
I1018 23:07:11.709641  8982 net.cpp:408] conv4_1/incep/0/conv -> conv4_1/incep/0
2 
2 
2 
2 
64 128 1 1 
64 
1 64 40 66 
3 
128 40 66 
2640 
I1018 23:07:11.709831  8982 net.cpp:150] Setting up conv4_1/incep/0/conv
I1018 23:07:11.709836  8982 net.cpp:157] Top shape: 1 64 40 66 (168960)
I1018 23:07:11.709838  8982 net.cpp:165] Memory required for data: 668405760
I1018 23:07:11.709846  8982 layer_factory.hpp:77] Creating layer conv4_1/incep/0/relu
I1018 23:07:11.709851  8982 net.cpp:100] Creating Layer conv4_1/incep/0/relu
I1018 23:07:11.709853  8982 net.cpp:434] conv4_1/incep/0/relu <- conv4_1/incep/0
I1018 23:07:11.709861  8982 net.cpp:395] conv4_1/incep/0/relu -> conv4_1/incep/0 (in-place)
1 64 40 66 
I1018 23:07:11.709974  8982 net.cpp:150] Setting up conv4_1/incep/0/relu
I1018 23:07:11.709977  8982 net.cpp:157] Top shape: 1 64 40 66 (168960)
I1018 23:07:11.709980  8982 net.cpp:165] Memory required for data: 669081600
I1018 23:07:11.709982  8982 layer_factory.hpp:77] Creating layer conv4_1/incep/1_reduce/conv
I1018 23:07:11.709988  8982 net.cpp:100] Creating Layer conv4_1/incep/1_reduce/conv
I1018 23:07:11.709991  8982 net.cpp:434] conv4_1/incep/1_reduce/conv <- conv3_4_conv3_4_0_split_1
I1018 23:07:11.709995  8982 net.cpp:408] conv4_1/incep/1_reduce/conv -> conv4_1/incep/1_reduce
2 
2 
2 
2 
48 128 1 1 
48 
1 48 40 66 
3 
128 40 66 
2640 
I1018 23:07:11.710189  8982 net.cpp:150] Setting up conv4_1/incep/1_reduce/conv
I1018 23:07:11.710193  8982 net.cpp:157] Top shape: 1 48 40 66 (126720)
I1018 23:07:11.710196  8982 net.cpp:165] Memory required for data: 669588480
I1018 23:07:11.710201  8982 layer_factory.hpp:77] Creating layer conv4_1/incep/1_reduce/relu
I1018 23:07:11.710204  8982 net.cpp:100] Creating Layer conv4_1/incep/1_reduce/relu
I1018 23:07:11.710207  8982 net.cpp:434] conv4_1/incep/1_reduce/relu <- conv4_1/incep/1_reduce
I1018 23:07:11.710211  8982 net.cpp:395] conv4_1/incep/1_reduce/relu -> conv4_1/incep/1_reduce (in-place)
1 48 40 66 
I1018 23:07:11.710646  8982 net.cpp:150] Setting up conv4_1/incep/1_reduce/relu
I1018 23:07:11.710652  8982 net.cpp:157] Top shape: 1 48 40 66 (126720)
I1018 23:07:11.710654  8982 net.cpp:165] Memory required for data: 670095360
I1018 23:07:11.710657  8982 layer_factory.hpp:77] Creating layer conv4_1/incep/1_0/conv
I1018 23:07:11.710664  8982 net.cpp:100] Creating Layer conv4_1/incep/1_0/conv
I1018 23:07:11.710666  8982 net.cpp:434] conv4_1/incep/1_0/conv <- conv4_1/incep/1_reduce
I1018 23:07:11.710670  8982 net.cpp:408] conv4_1/incep/1_0/conv -> conv4_1/incep/1_0
2 
2 
2 
2 
128 48 3 3 
128 
1 128 40 66 
3 
432 40 66 
2640 
I1018 23:07:11.712307  8982 net.cpp:150] Setting up conv4_1/incep/1_0/conv
I1018 23:07:11.712316  8982 net.cpp:157] Top shape: 1 128 40 66 (337920)
I1018 23:07:11.712317  8982 net.cpp:165] Memory required for data: 671447040
I1018 23:07:11.712322  8982 layer_factory.hpp:77] Creating layer conv4_1/incep/1_0/relu
I1018 23:07:11.712327  8982 net.cpp:100] Creating Layer conv4_1/incep/1_0/relu
I1018 23:07:11.712330  8982 net.cpp:434] conv4_1/incep/1_0/relu <- conv4_1/incep/1_0
I1018 23:07:11.712333  8982 net.cpp:395] conv4_1/incep/1_0/relu -> conv4_1/incep/1_0 (in-place)
1 128 40 66 
I1018 23:07:11.712447  8982 net.cpp:150] Setting up conv4_1/incep/1_0/relu
I1018 23:07:11.712451  8982 net.cpp:157] Top shape: 1 128 40 66 (337920)
I1018 23:07:11.712455  8982 net.cpp:165] Memory required for data: 672798720
I1018 23:07:11.712456  8982 layer_factory.hpp:77] Creating layer conv4_1/incep/2_reduce/conv
I1018 23:07:11.712462  8982 net.cpp:100] Creating Layer conv4_1/incep/2_reduce/conv
I1018 23:07:11.712466  8982 net.cpp:434] conv4_1/incep/2_reduce/conv <- conv3_4_conv3_4_0_split_2
I1018 23:07:11.712469  8982 net.cpp:408] conv4_1/incep/2_reduce/conv -> conv4_1/incep/2_reduce
2 
2 
2 
2 
24 128 1 1 
24 
1 24 40 66 
3 
128 40 66 
2640 
I1018 23:07:11.712654  8982 net.cpp:150] Setting up conv4_1/incep/2_reduce/conv
I1018 23:07:11.712659  8982 net.cpp:157] Top shape: 1 24 40 66 (63360)
I1018 23:07:11.712661  8982 net.cpp:165] Memory required for data: 673052160
I1018 23:07:11.712666  8982 layer_factory.hpp:77] Creating layer conv4_1/incep/2_reduce/relu
I1018 23:07:11.712669  8982 net.cpp:100] Creating Layer conv4_1/incep/2_reduce/relu
I1018 23:07:11.712672  8982 net.cpp:434] conv4_1/incep/2_reduce/relu <- conv4_1/incep/2_reduce
I1018 23:07:11.712676  8982 net.cpp:395] conv4_1/incep/2_reduce/relu -> conv4_1/incep/2_reduce (in-place)
1 24 40 66 
I1018 23:07:11.713112  8982 net.cpp:150] Setting up conv4_1/incep/2_reduce/relu
I1018 23:07:11.713119  8982 net.cpp:157] Top shape: 1 24 40 66 (63360)
I1018 23:07:11.713121  8982 net.cpp:165] Memory required for data: 673305600
I1018 23:07:11.713126  8982 layer_factory.hpp:77] Creating layer conv4_1/incep/2_0/conv
I1018 23:07:11.713134  8982 net.cpp:100] Creating Layer conv4_1/incep/2_0/conv
I1018 23:07:11.713136  8982 net.cpp:434] conv4_1/incep/2_0/conv <- conv4_1/incep/2_reduce
I1018 23:07:11.713140  8982 net.cpp:408] conv4_1/incep/2_0/conv -> conv4_1/incep/2_0
2 
2 
2 
2 
48 24 3 3 
48 
1 48 40 66 
3 
216 40 66 
2640 
I1018 23:07:11.714323  8982 net.cpp:150] Setting up conv4_1/incep/2_0/conv
I1018 23:07:11.714330  8982 net.cpp:157] Top shape: 1 48 40 66 (126720)
I1018 23:07:11.714334  8982 net.cpp:165] Memory required for data: 673812480
I1018 23:07:11.714339  8982 layer_factory.hpp:77] Creating layer conv4_1/incep/2_0/relu
I1018 23:07:11.714342  8982 net.cpp:100] Creating Layer conv4_1/incep/2_0/relu
I1018 23:07:11.714345  8982 net.cpp:434] conv4_1/incep/2_0/relu <- conv4_1/incep/2_0
I1018 23:07:11.714349  8982 net.cpp:395] conv4_1/incep/2_0/relu -> conv4_1/incep/2_0 (in-place)
1 48 40 66 
I1018 23:07:11.714460  8982 net.cpp:150] Setting up conv4_1/incep/2_0/relu
I1018 23:07:11.714465  8982 net.cpp:157] Top shape: 1 48 40 66 (126720)
I1018 23:07:11.714468  8982 net.cpp:165] Memory required for data: 674319360
I1018 23:07:11.714470  8982 layer_factory.hpp:77] Creating layer conv4_1/incep/2_1/conv
I1018 23:07:11.714476  8982 net.cpp:100] Creating Layer conv4_1/incep/2_1/conv
I1018 23:07:11.714479  8982 net.cpp:434] conv4_1/incep/2_1/conv <- conv4_1/incep/2_0
I1018 23:07:11.714483  8982 net.cpp:408] conv4_1/incep/2_1/conv -> conv4_1/incep/2_1
2 
2 
2 
2 
48 48 3 3 
48 
1 48 40 66 
3 
432 40 66 
2640 
I1018 23:07:11.715706  8982 net.cpp:150] Setting up conv4_1/incep/2_1/conv
I1018 23:07:11.715714  8982 net.cpp:157] Top shape: 1 48 40 66 (126720)
I1018 23:07:11.715716  8982 net.cpp:165] Memory required for data: 674826240
I1018 23:07:11.715721  8982 layer_factory.hpp:77] Creating layer conv4_1/incep/2_1/relu
I1018 23:07:11.715725  8982 net.cpp:100] Creating Layer conv4_1/incep/2_1/relu
I1018 23:07:11.715728  8982 net.cpp:434] conv4_1/incep/2_1/relu <- conv4_1/incep/2_1
I1018 23:07:11.715732  8982 net.cpp:395] conv4_1/incep/2_1/relu -> conv4_1/incep/2_1 (in-place)
1 48 40 66 
I1018 23:07:11.715844  8982 net.cpp:150] Setting up conv4_1/incep/2_1/relu
I1018 23:07:11.715849  8982 net.cpp:157] Top shape: 1 48 40 66 (126720)
I1018 23:07:11.715852  8982 net.cpp:165] Memory required for data: 675333120
I1018 23:07:11.715854  8982 layer_factory.hpp:77] Creating layer conv4_1/incep/pool
I1018 23:07:11.715858  8982 net.cpp:100] Creating Layer conv4_1/incep/pool
I1018 23:07:11.715862  8982 net.cpp:434] conv4_1/incep/pool <- conv3_4_conv3_4_0_split_3
I1018 23:07:11.715865  8982 net.cpp:408] conv4_1/incep/pool -> conv4_1/incep/pool
1 128 40 66 
1 128 40 66 
I1018 23:07:11.715898  8982 net.cpp:150] Setting up conv4_1/incep/pool
I1018 23:07:11.715903  8982 net.cpp:157] Top shape: 1 128 40 66 (337920)
I1018 23:07:11.715904  8982 net.cpp:165] Memory required for data: 676684800
I1018 23:07:11.715906  8982 layer_factory.hpp:77] Creating layer conv4_1/incep/poolproj/conv
I1018 23:07:11.715912  8982 net.cpp:100] Creating Layer conv4_1/incep/poolproj/conv
I1018 23:07:11.715915  8982 net.cpp:434] conv4_1/incep/poolproj/conv <- conv4_1/incep/pool
I1018 23:07:11.715919  8982 net.cpp:408] conv4_1/incep/poolproj/conv -> conv4_1/incep/poolproj
2 
2 
2 
2 
128 128 1 1 
128 
1 128 40 66 
3 
128 40 66 
2640 
I1018 23:07:11.716151  8982 net.cpp:150] Setting up conv4_1/incep/poolproj/conv
I1018 23:07:11.716157  8982 net.cpp:157] Top shape: 1 128 40 66 (337920)
I1018 23:07:11.716159  8982 net.cpp:165] Memory required for data: 678036480
I1018 23:07:11.716163  8982 layer_factory.hpp:77] Creating layer conv4_1/incep/poolproj/relu
I1018 23:07:11.716167  8982 net.cpp:100] Creating Layer conv4_1/incep/poolproj/relu
I1018 23:07:11.716171  8982 net.cpp:434] conv4_1/incep/poolproj/relu <- conv4_1/incep/poolproj
I1018 23:07:11.716173  8982 net.cpp:395] conv4_1/incep/poolproj/relu -> conv4_1/incep/poolproj (in-place)
1 128 40 66 
I1018 23:07:11.716611  8982 net.cpp:150] Setting up conv4_1/incep/poolproj/relu
I1018 23:07:11.716620  8982 net.cpp:157] Top shape: 1 128 40 66 (337920)
I1018 23:07:11.716624  8982 net.cpp:165] Memory required for data: 679388160
I1018 23:07:11.716625  8982 layer_factory.hpp:77] Creating layer conv4_1/incep
I1018 23:07:11.716630  8982 net.cpp:100] Creating Layer conv4_1/incep
I1018 23:07:11.716634  8982 net.cpp:434] conv4_1/incep <- conv4_1/incep/0
I1018 23:07:11.716636  8982 net.cpp:434] conv4_1/incep <- conv4_1/incep/1_0
I1018 23:07:11.716639  8982 net.cpp:434] conv4_1/incep <- conv4_1/incep/2_1
I1018 23:07:11.716642  8982 net.cpp:434] conv4_1/incep <- conv4_1/incep/poolproj
I1018 23:07:11.716646  8982 net.cpp:408] conv4_1/incep -> conv4_1/incep
1 368 40 66 
I1018 23:07:11.716667  8982 net.cpp:150] Setting up conv4_1/incep
I1018 23:07:11.716671  8982 net.cpp:157] Top shape: 1 368 40 66 (971520)
I1018 23:07:11.716673  8982 net.cpp:165] Memory required for data: 683274240
I1018 23:07:11.716676  8982 layer_factory.hpp:77] Creating layer conv4_1/out/conv
I1018 23:07:11.716681  8982 net.cpp:100] Creating Layer conv4_1/out/conv
I1018 23:07:11.716684  8982 net.cpp:434] conv4_1/out/conv <- conv4_1/incep
I1018 23:07:11.716687  8982 net.cpp:408] conv4_1/out/conv -> conv4_1/out
2 
2 
2 
2 
256 368 1 1 
256 
1 256 40 66 
3 
368 40 66 
2640 
I1018 23:07:11.717470  8982 net.cpp:150] Setting up conv4_1/out/conv
I1018 23:07:11.717478  8982 net.cpp:157] Top shape: 1 256 40 66 (675840)
I1018 23:07:11.717480  8982 net.cpp:165] Memory required for data: 685977600
I1018 23:07:11.717484  8982 layer_factory.hpp:77] Creating layer conv4_1/proj
I1018 23:07:11.717490  8982 net.cpp:100] Creating Layer conv4_1/proj
I1018 23:07:11.717494  8982 net.cpp:434] conv4_1/proj <- conv3_4_conv3_4_0_split_4
I1018 23:07:11.717497  8982 net.cpp:408] conv4_1/proj -> conv4_1/proj
2 
2 
2 
2 
256 128 1 1 
256 
1 256 40 66 
3 
128 40 66 
2640 
I1018 23:07:11.717787  8982 net.cpp:150] Setting up conv4_1/proj
I1018 23:07:11.717792  8982 net.cpp:157] Top shape: 1 256 40 66 (675840)
I1018 23:07:11.717794  8982 net.cpp:165] Memory required for data: 688680960
I1018 23:07:11.717798  8982 layer_factory.hpp:77] Creating layer conv4_1
I1018 23:07:11.717803  8982 net.cpp:100] Creating Layer conv4_1
I1018 23:07:11.717805  8982 net.cpp:434] conv4_1 <- conv4_1/out
I1018 23:07:11.717808  8982 net.cpp:434] conv4_1 <- conv4_1/proj
I1018 23:07:11.717813  8982 net.cpp:408] conv4_1 -> conv4_1
1 256 40 66 
I1018 23:07:11.717830  8982 net.cpp:150] Setting up conv4_1
I1018 23:07:11.717833  8982 net.cpp:157] Top shape: 1 256 40 66 (675840)
I1018 23:07:11.717836  8982 net.cpp:165] Memory required for data: 691384320
I1018 23:07:11.717839  8982 layer_factory.hpp:77] Creating layer conv4_1_conv4_1_0_split
I1018 23:07:11.717842  8982 net.cpp:100] Creating Layer conv4_1_conv4_1_0_split
I1018 23:07:11.717844  8982 net.cpp:434] conv4_1_conv4_1_0_split <- conv4_1
I1018 23:07:11.717849  8982 net.cpp:408] conv4_1_conv4_1_0_split -> conv4_1_conv4_1_0_split_0
I1018 23:07:11.717854  8982 net.cpp:408] conv4_1_conv4_1_0_split -> conv4_1_conv4_1_0_split_1
I1018 23:07:11.717857  8982 net.cpp:408] conv4_1_conv4_1_0_split -> conv4_1_conv4_1_0_split_2
I1018 23:07:11.717861  8982 net.cpp:408] conv4_1_conv4_1_0_split -> conv4_1_conv4_1_0_split_3
1 256 40 66 
1 256 40 66 
1 256 40 66 
1 256 40 66 
I1018 23:07:11.717905  8982 net.cpp:150] Setting up conv4_1_conv4_1_0_split
I1018 23:07:11.717908  8982 net.cpp:157] Top shape: 1 256 40 66 (675840)
I1018 23:07:11.717911  8982 net.cpp:157] Top shape: 1 256 40 66 (675840)
I1018 23:07:11.717914  8982 net.cpp:157] Top shape: 1 256 40 66 (675840)
I1018 23:07:11.717916  8982 net.cpp:157] Top shape: 1 256 40 66 (675840)
I1018 23:07:11.717918  8982 net.cpp:165] Memory required for data: 702197760
I1018 23:07:11.717921  8982 layer_factory.hpp:77] Creating layer conv4_2/incep/0/conv
I1018 23:07:11.717926  8982 net.cpp:100] Creating Layer conv4_2/incep/0/conv
I1018 23:07:11.717929  8982 net.cpp:434] conv4_2/incep/0/conv <- conv4_1_conv4_1_0_split_0
I1018 23:07:11.717932  8982 net.cpp:408] conv4_2/incep/0/conv -> conv4_2/incep/0
2 
2 
2 
2 
64 256 1 1 
64 
1 64 40 66 
3 
256 40 66 
2640 
I1018 23:07:11.718163  8982 net.cpp:150] Setting up conv4_2/incep/0/conv
I1018 23:07:11.718168  8982 net.cpp:157] Top shape: 1 64 40 66 (168960)
I1018 23:07:11.718170  8982 net.cpp:165] Memory required for data: 702873600
I1018 23:07:11.718174  8982 layer_factory.hpp:77] Creating layer conv4_2/incep/0/relu
I1018 23:07:11.718178  8982 net.cpp:100] Creating Layer conv4_2/incep/0/relu
I1018 23:07:11.718180  8982 net.cpp:434] conv4_2/incep/0/relu <- conv4_2/incep/0
I1018 23:07:11.718184  8982 net.cpp:395] conv4_2/incep/0/relu -> conv4_2/incep/0 (in-place)
1 64 40 66 
I1018 23:07:11.718297  8982 net.cpp:150] Setting up conv4_2/incep/0/relu
I1018 23:07:11.718302  8982 net.cpp:157] Top shape: 1 64 40 66 (168960)
I1018 23:07:11.718304  8982 net.cpp:165] Memory required for data: 703549440
I1018 23:07:11.718307  8982 layer_factory.hpp:77] Creating layer conv4_2/incep/1_reduce/conv
I1018 23:07:11.718312  8982 net.cpp:100] Creating Layer conv4_2/incep/1_reduce/conv
I1018 23:07:11.718315  8982 net.cpp:434] conv4_2/incep/1_reduce/conv <- conv4_1_conv4_1_0_split_1
I1018 23:07:11.718319  8982 net.cpp:408] conv4_2/incep/1_reduce/conv -> conv4_2/incep/1_reduce
2 
2 
2 
2 
64 256 1 1 
64 
1 64 40 66 
3 
256 40 66 
2640 
I1018 23:07:11.718554  8982 net.cpp:150] Setting up conv4_2/incep/1_reduce/conv
I1018 23:07:11.718559  8982 net.cpp:157] Top shape: 1 64 40 66 (168960)
I1018 23:07:11.718560  8982 net.cpp:165] Memory required for data: 704225280
I1018 23:07:11.718564  8982 layer_factory.hpp:77] Creating layer conv4_2/incep/1_reduce/relu
I1018 23:07:11.718569  8982 net.cpp:100] Creating Layer conv4_2/incep/1_reduce/relu
I1018 23:07:11.718571  8982 net.cpp:434] conv4_2/incep/1_reduce/relu <- conv4_2/incep/1_reduce
I1018 23:07:11.718575  8982 net.cpp:395] conv4_2/incep/1_reduce/relu -> conv4_2/incep/1_reduce (in-place)
1 64 40 66 
I1018 23:07:11.719009  8982 net.cpp:150] Setting up conv4_2/incep/1_reduce/relu
I1018 23:07:11.719015  8982 net.cpp:157] Top shape: 1 64 40 66 (168960)
I1018 23:07:11.719018  8982 net.cpp:165] Memory required for data: 704901120
I1018 23:07:11.719020  8982 layer_factory.hpp:77] Creating layer conv4_2/incep/1_0/conv
I1018 23:07:11.719027  8982 net.cpp:100] Creating Layer conv4_2/incep/1_0/conv
I1018 23:07:11.719030  8982 net.cpp:434] conv4_2/incep/1_0/conv <- conv4_2/incep/1_reduce
I1018 23:07:11.719034  8982 net.cpp:408] conv4_2/incep/1_0/conv -> conv4_2/incep/1_0
2 
2 
2 
2 
128 64 3 3 
128 
1 128 40 66 
3 
576 40 66 
2640 
I1018 23:07:11.720820  8982 net.cpp:150] Setting up conv4_2/incep/1_0/conv
I1018 23:07:11.720827  8982 net.cpp:157] Top shape: 1 128 40 66 (337920)
I1018 23:07:11.720830  8982 net.cpp:165] Memory required for data: 706252800
I1018 23:07:11.720835  8982 layer_factory.hpp:77] Creating layer conv4_2/incep/1_0/relu
I1018 23:07:11.720839  8982 net.cpp:100] Creating Layer conv4_2/incep/1_0/relu
I1018 23:07:11.720842  8982 net.cpp:434] conv4_2/incep/1_0/relu <- conv4_2/incep/1_0
I1018 23:07:11.720846  8982 net.cpp:395] conv4_2/incep/1_0/relu -> conv4_2/incep/1_0 (in-place)
1 128 40 66 
I1018 23:07:11.720958  8982 net.cpp:150] Setting up conv4_2/incep/1_0/relu
I1018 23:07:11.720963  8982 net.cpp:157] Top shape: 1 128 40 66 (337920)
I1018 23:07:11.720965  8982 net.cpp:165] Memory required for data: 707604480
I1018 23:07:11.720968  8982 layer_factory.hpp:77] Creating layer conv4_2/incep/2_reduce/conv
I1018 23:07:11.720973  8982 net.cpp:100] Creating Layer conv4_2/incep/2_reduce/conv
I1018 23:07:11.720976  8982 net.cpp:434] conv4_2/incep/2_reduce/conv <- conv4_1_conv4_1_0_split_2
I1018 23:07:11.720980  8982 net.cpp:408] conv4_2/incep/2_reduce/conv -> conv4_2/incep/2_reduce
2 
2 
2 
2 
24 256 1 1 
24 
1 24 40 66 
3 
256 40 66 
2640 
I1018 23:07:11.721179  8982 net.cpp:150] Setting up conv4_2/incep/2_reduce/conv
I1018 23:07:11.721184  8982 net.cpp:157] Top shape: 1 24 40 66 (63360)
I1018 23:07:11.721186  8982 net.cpp:165] Memory required for data: 707857920
I1018 23:07:11.721191  8982 layer_factory.hpp:77] Creating layer conv4_2/incep/2_reduce/relu
I1018 23:07:11.721199  8982 net.cpp:100] Creating Layer conv4_2/incep/2_reduce/relu
I1018 23:07:11.721202  8982 net.cpp:434] conv4_2/incep/2_reduce/relu <- conv4_2/incep/2_reduce
I1018 23:07:11.721205  8982 net.cpp:395] conv4_2/incep/2_reduce/relu -> conv4_2/incep/2_reduce (in-place)
1 24 40 66 
I1018 23:07:11.721642  8982 net.cpp:150] Setting up conv4_2/incep/2_reduce/relu
I1018 23:07:11.721649  8982 net.cpp:157] Top shape: 1 24 40 66 (63360)
I1018 23:07:11.721652  8982 net.cpp:165] Memory required for data: 708111360
I1018 23:07:11.721653  8982 layer_factory.hpp:77] Creating layer conv4_2/incep/2_0/conv
I1018 23:07:11.721660  8982 net.cpp:100] Creating Layer conv4_2/incep/2_0/conv
I1018 23:07:11.721662  8982 net.cpp:434] conv4_2/incep/2_0/conv <- conv4_2/incep/2_reduce
I1018 23:07:11.721668  8982 net.cpp:408] conv4_2/incep/2_0/conv -> conv4_2/incep/2_0
2 
2 
2 
2 
48 24 3 3 
48 
1 48 40 66 
3 
216 40 66 
2640 
I1018 23:07:11.722856  8982 net.cpp:150] Setting up conv4_2/incep/2_0/conv
I1018 23:07:11.722863  8982 net.cpp:157] Top shape: 1 48 40 66 (126720)
I1018 23:07:11.722867  8982 net.cpp:165] Memory required for data: 708618240
I1018 23:07:11.722872  8982 layer_factory.hpp:77] Creating layer conv4_2/incep/2_0/relu
I1018 23:07:11.722875  8982 net.cpp:100] Creating Layer conv4_2/incep/2_0/relu
I1018 23:07:11.722878  8982 net.cpp:434] conv4_2/incep/2_0/relu <- conv4_2/incep/2_0
I1018 23:07:11.722882  8982 net.cpp:395] conv4_2/incep/2_0/relu -> conv4_2/incep/2_0 (in-place)
1 48 40 66 
I1018 23:07:11.722995  8982 net.cpp:150] Setting up conv4_2/incep/2_0/relu
I1018 23:07:11.723000  8982 net.cpp:157] Top shape: 1 48 40 66 (126720)
I1018 23:07:11.723001  8982 net.cpp:165] Memory required for data: 709125120
I1018 23:07:11.723003  8982 layer_factory.hpp:77] Creating layer conv4_2/incep/2_1/conv
I1018 23:07:11.723009  8982 net.cpp:100] Creating Layer conv4_2/incep/2_1/conv
I1018 23:07:11.723012  8982 net.cpp:434] conv4_2/incep/2_1/conv <- conv4_2/incep/2_0
I1018 23:07:11.723016  8982 net.cpp:408] conv4_2/incep/2_1/conv -> conv4_2/incep/2_1
2 
2 
2 
2 
48 48 3 3 
48 
1 48 40 66 
3 
432 40 66 
2640 
I1018 23:07:11.724256  8982 net.cpp:150] Setting up conv4_2/incep/2_1/conv
I1018 23:07:11.724263  8982 net.cpp:157] Top shape: 1 48 40 66 (126720)
I1018 23:07:11.724265  8982 net.cpp:165] Memory required for data: 709632000
I1018 23:07:11.724270  8982 layer_factory.hpp:77] Creating layer conv4_2/incep/2_1/relu
I1018 23:07:11.724275  8982 net.cpp:100] Creating Layer conv4_2/incep/2_1/relu
I1018 23:07:11.724278  8982 net.cpp:434] conv4_2/incep/2_1/relu <- conv4_2/incep/2_1
I1018 23:07:11.724282  8982 net.cpp:395] conv4_2/incep/2_1/relu -> conv4_2/incep/2_1 (in-place)
1 48 40 66 
I1018 23:07:11.724721  8982 net.cpp:150] Setting up conv4_2/incep/2_1/relu
I1018 23:07:11.724727  8982 net.cpp:157] Top shape: 1 48 40 66 (126720)
I1018 23:07:11.724730  8982 net.cpp:165] Memory required for data: 710138880
I1018 23:07:11.724732  8982 layer_factory.hpp:77] Creating layer conv4_2/incep
I1018 23:07:11.724737  8982 net.cpp:100] Creating Layer conv4_2/incep
I1018 23:07:11.724740  8982 net.cpp:434] conv4_2/incep <- conv4_2/incep/0
I1018 23:07:11.724743  8982 net.cpp:434] conv4_2/incep <- conv4_2/incep/1_0
I1018 23:07:11.724746  8982 net.cpp:434] conv4_2/incep <- conv4_2/incep/2_1
I1018 23:07:11.724750  8982 net.cpp:408] conv4_2/incep -> conv4_2/incep
1 240 40 66 
I1018 23:07:11.724771  8982 net.cpp:150] Setting up conv4_2/incep
I1018 23:07:11.724776  8982 net.cpp:157] Top shape: 1 240 40 66 (633600)
I1018 23:07:11.724778  8982 net.cpp:165] Memory required for data: 712673280
I1018 23:07:11.724781  8982 layer_factory.hpp:77] Creating layer conv4_2/out/conv
I1018 23:07:11.724786  8982 net.cpp:100] Creating Layer conv4_2/out/conv
I1018 23:07:11.724788  8982 net.cpp:434] conv4_2/out/conv <- conv4_2/incep
I1018 23:07:11.724792  8982 net.cpp:408] conv4_2/out/conv -> conv4_2/out
2 
2 
2 
2 
256 240 1 1 
256 
1 256 40 66 
3 
240 40 66 
2640 
I1018 23:07:11.725199  8982 net.cpp:150] Setting up conv4_2/out/conv
I1018 23:07:11.725204  8982 net.cpp:157] Top shape: 1 256 40 66 (675840)
I1018 23:07:11.725209  8982 net.cpp:165] Memory required for data: 715376640
I1018 23:07:11.725214  8982 layer_factory.hpp:77] Creating layer conv4_2/input
I1018 23:07:11.725219  8982 net.cpp:100] Creating Layer conv4_2/input
I1018 23:07:11.725221  8982 net.cpp:434] conv4_2/input <- conv4_1_conv4_1_0_split_3
I1018 23:07:11.725225  8982 net.cpp:408] conv4_2/input -> conv4_2/input
1 256 40 66 
I1018 23:07:11.725244  8982 net.cpp:150] Setting up conv4_2/input
I1018 23:07:11.725247  8982 net.cpp:157] Top shape: 1 256 40 66 (675840)
I1018 23:07:11.725250  8982 net.cpp:165] Memory required for data: 718080000
I1018 23:07:11.725252  8982 layer_factory.hpp:77] Creating layer conv4_2
I1018 23:07:11.725265  8982 net.cpp:100] Creating Layer conv4_2
I1018 23:07:11.725267  8982 net.cpp:434] conv4_2 <- conv4_2/out
I1018 23:07:11.725270  8982 net.cpp:434] conv4_2 <- conv4_2/input
I1018 23:07:11.725275  8982 net.cpp:408] conv4_2 -> conv4_2
1 256 40 66 
I1018 23:07:11.725291  8982 net.cpp:150] Setting up conv4_2
I1018 23:07:11.725296  8982 net.cpp:157] Top shape: 1 256 40 66 (675840)
I1018 23:07:11.725297  8982 net.cpp:165] Memory required for data: 720783360
I1018 23:07:11.725301  8982 layer_factory.hpp:77] Creating layer conv4_2_conv4_2_0_split
I1018 23:07:11.725304  8982 net.cpp:100] Creating Layer conv4_2_conv4_2_0_split
I1018 23:07:11.725306  8982 net.cpp:434] conv4_2_conv4_2_0_split <- conv4_2
I1018 23:07:11.725311  8982 net.cpp:408] conv4_2_conv4_2_0_split -> conv4_2_conv4_2_0_split_0
I1018 23:07:11.725314  8982 net.cpp:408] conv4_2_conv4_2_0_split -> conv4_2_conv4_2_0_split_1
I1018 23:07:11.725319  8982 net.cpp:408] conv4_2_conv4_2_0_split -> conv4_2_conv4_2_0_split_2
I1018 23:07:11.725323  8982 net.cpp:408] conv4_2_conv4_2_0_split -> conv4_2_conv4_2_0_split_3
1 256 40 66 
1 256 40 66 
1 256 40 66 
1 256 40 66 
I1018 23:07:11.725368  8982 net.cpp:150] Setting up conv4_2_conv4_2_0_split
I1018 23:07:11.725370  8982 net.cpp:157] Top shape: 1 256 40 66 (675840)
I1018 23:07:11.725373  8982 net.cpp:157] Top shape: 1 256 40 66 (675840)
I1018 23:07:11.725376  8982 net.cpp:157] Top shape: 1 256 40 66 (675840)
I1018 23:07:11.725379  8982 net.cpp:157] Top shape: 1 256 40 66 (675840)
I1018 23:07:11.725381  8982 net.cpp:165] Memory required for data: 731596800
I1018 23:07:11.725383  8982 layer_factory.hpp:77] Creating layer conv4_3/incep/0/conv
I1018 23:07:11.725389  8982 net.cpp:100] Creating Layer conv4_3/incep/0/conv
I1018 23:07:11.725391  8982 net.cpp:434] conv4_3/incep/0/conv <- conv4_2_conv4_2_0_split_0
I1018 23:07:11.725395  8982 net.cpp:408] conv4_3/incep/0/conv -> conv4_3/incep/0
2 
2 
2 
2 
64 256 1 1 
64 
1 64 40 66 
3 
256 40 66 
2640 
I1018 23:07:11.725626  8982 net.cpp:150] Setting up conv4_3/incep/0/conv
I1018 23:07:11.725631  8982 net.cpp:157] Top shape: 1 64 40 66 (168960)
I1018 23:07:11.725633  8982 net.cpp:165] Memory required for data: 732272640
I1018 23:07:11.725637  8982 layer_factory.hpp:77] Creating layer conv4_3/incep/0/relu
I1018 23:07:11.725641  8982 net.cpp:100] Creating Layer conv4_3/incep/0/relu
I1018 23:07:11.725643  8982 net.cpp:434] conv4_3/incep/0/relu <- conv4_3/incep/0
I1018 23:07:11.725647  8982 net.cpp:395] conv4_3/incep/0/relu -> conv4_3/incep/0 (in-place)
1 64 40 66 
I1018 23:07:11.725759  8982 net.cpp:150] Setting up conv4_3/incep/0/relu
I1018 23:07:11.725764  8982 net.cpp:157] Top shape: 1 64 40 66 (168960)
I1018 23:07:11.725766  8982 net.cpp:165] Memory required for data: 732948480
I1018 23:07:11.725769  8982 layer_factory.hpp:77] Creating layer conv4_3/incep/1_reduce/conv
I1018 23:07:11.725775  8982 net.cpp:100] Creating Layer conv4_3/incep/1_reduce/conv
I1018 23:07:11.725777  8982 net.cpp:434] conv4_3/incep/1_reduce/conv <- conv4_2_conv4_2_0_split_1
I1018 23:07:11.725782  8982 net.cpp:408] conv4_3/incep/1_reduce/conv -> conv4_3/incep/1_reduce
2 
2 
2 
2 
64 256 1 1 
64 
1 64 40 66 
3 
256 40 66 
2640 
I1018 23:07:11.726022  8982 net.cpp:150] Setting up conv4_3/incep/1_reduce/conv
I1018 23:07:11.726027  8982 net.cpp:157] Top shape: 1 64 40 66 (168960)
I1018 23:07:11.726029  8982 net.cpp:165] Memory required for data: 733624320
I1018 23:07:11.726037  8982 layer_factory.hpp:77] Creating layer conv4_3/incep/1_reduce/relu
I1018 23:07:11.726040  8982 net.cpp:100] Creating Layer conv4_3/incep/1_reduce/relu
I1018 23:07:11.726043  8982 net.cpp:434] conv4_3/incep/1_reduce/relu <- conv4_3/incep/1_reduce
I1018 23:07:11.726047  8982 net.cpp:395] conv4_3/incep/1_reduce/relu -> conv4_3/incep/1_reduce (in-place)
1 64 40 66 
I1018 23:07:11.726487  8982 net.cpp:150] Setting up conv4_3/incep/1_reduce/relu
I1018 23:07:11.726493  8982 net.cpp:157] Top shape: 1 64 40 66 (168960)
I1018 23:07:11.726495  8982 net.cpp:165] Memory required for data: 734300160
I1018 23:07:11.726498  8982 layer_factory.hpp:77] Creating layer conv4_3/incep/1_0/conv
I1018 23:07:11.726505  8982 net.cpp:100] Creating Layer conv4_3/incep/1_0/conv
I1018 23:07:11.726507  8982 net.cpp:434] conv4_3/incep/1_0/conv <- conv4_3/incep/1_reduce
I1018 23:07:11.726511  8982 net.cpp:408] conv4_3/incep/1_0/conv -> conv4_3/incep/1_0
2 
2 
2 
2 
128 64 3 3 
128 
1 128 40 66 
3 
576 40 66 
2640 
I1018 23:07:11.727625  8982 net.cpp:150] Setting up conv4_3/incep/1_0/conv
I1018 23:07:11.727632  8982 net.cpp:157] Top shape: 1 128 40 66 (337920)
I1018 23:07:11.727635  8982 net.cpp:165] Memory required for data: 735651840
I1018 23:07:11.727639  8982 layer_factory.hpp:77] Creating layer conv4_3/incep/1_0/relu
I1018 23:07:11.727644  8982 net.cpp:100] Creating Layer conv4_3/incep/1_0/relu
I1018 23:07:11.727648  8982 net.cpp:434] conv4_3/incep/1_0/relu <- conv4_3/incep/1_0
I1018 23:07:11.727651  8982 net.cpp:395] conv4_3/incep/1_0/relu -> conv4_3/incep/1_0 (in-place)
1 128 40 66 
I1018 23:07:11.728093  8982 net.cpp:150] Setting up conv4_3/incep/1_0/relu
I1018 23:07:11.728099  8982 net.cpp:157] Top shape: 1 128 40 66 (337920)
I1018 23:07:11.728102  8982 net.cpp:165] Memory required for data: 737003520
I1018 23:07:11.728104  8982 layer_factory.hpp:77] Creating layer conv4_3/incep/2_reduce/conv
I1018 23:07:11.728111  8982 net.cpp:100] Creating Layer conv4_3/incep/2_reduce/conv
I1018 23:07:11.728114  8982 net.cpp:434] conv4_3/incep/2_reduce/conv <- conv4_2_conv4_2_0_split_2
I1018 23:07:11.728119  8982 net.cpp:408] conv4_3/incep/2_reduce/conv -> conv4_3/incep/2_reduce
2 
2 
2 
2 
24 256 1 1 
24 
1 24 40 66 
3 
256 40 66 
2640 
I1018 23:07:11.728322  8982 net.cpp:150] Setting up conv4_3/incep/2_reduce/conv
I1018 23:07:11.728327  8982 net.cpp:157] Top shape: 1 24 40 66 (63360)
I1018 23:07:11.728330  8982 net.cpp:165] Memory required for data: 737256960
I1018 23:07:11.728334  8982 layer_factory.hpp:77] Creating layer conv4_3/incep/2_reduce/relu
I1018 23:07:11.728338  8982 net.cpp:100] Creating Layer conv4_3/incep/2_reduce/relu
I1018 23:07:11.728340  8982 net.cpp:434] conv4_3/incep/2_reduce/relu <- conv4_3/incep/2_reduce
I1018 23:07:11.728344  8982 net.cpp:395] conv4_3/incep/2_reduce/relu -> conv4_3/incep/2_reduce (in-place)
1 24 40 66 
I1018 23:07:11.728456  8982 net.cpp:150] Setting up conv4_3/incep/2_reduce/relu
I1018 23:07:11.728461  8982 net.cpp:157] Top shape: 1 24 40 66 (63360)
I1018 23:07:11.728462  8982 net.cpp:165] Memory required for data: 737510400
I1018 23:07:11.728464  8982 layer_factory.hpp:77] Creating layer conv4_3/incep/2_0/conv
I1018 23:07:11.728471  8982 net.cpp:100] Creating Layer conv4_3/incep/2_0/conv
I1018 23:07:11.728473  8982 net.cpp:434] conv4_3/incep/2_0/conv <- conv4_3/incep/2_reduce
I1018 23:07:11.728477  8982 net.cpp:408] conv4_3/incep/2_0/conv -> conv4_3/incep/2_0
2 
2 
2 
2 
48 24 3 3 
48 
1 48 40 66 
3 
216 40 66 
2640 
I1018 23:07:11.729667  8982 net.cpp:150] Setting up conv4_3/incep/2_0/conv
I1018 23:07:11.729676  8982 net.cpp:157] Top shape: 1 48 40 66 (126720)
I1018 23:07:11.729677  8982 net.cpp:165] Memory required for data: 738017280
I1018 23:07:11.729682  8982 layer_factory.hpp:77] Creating layer conv4_3/incep/2_0/relu
I1018 23:07:11.729686  8982 net.cpp:100] Creating Layer conv4_3/incep/2_0/relu
I1018 23:07:11.729689  8982 net.cpp:434] conv4_3/incep/2_0/relu <- conv4_3/incep/2_0
I1018 23:07:11.729693  8982 net.cpp:395] conv4_3/incep/2_0/relu -> conv4_3/incep/2_0 (in-place)
1 48 40 66 
I1018 23:07:11.730134  8982 net.cpp:150] Setting up conv4_3/incep/2_0/relu
I1018 23:07:11.730140  8982 net.cpp:157] Top shape: 1 48 40 66 (126720)
I1018 23:07:11.730144  8982 net.cpp:165] Memory required for data: 738524160
I1018 23:07:11.730145  8982 layer_factory.hpp:77] Creating layer conv4_3/incep/2_1/conv
I1018 23:07:11.730152  8982 net.cpp:100] Creating Layer conv4_3/incep/2_1/conv
I1018 23:07:11.730155  8982 net.cpp:434] conv4_3/incep/2_1/conv <- conv4_3/incep/2_0
I1018 23:07:11.730159  8982 net.cpp:408] conv4_3/incep/2_1/conv -> conv4_3/incep/2_1
2 
2 
2 
2 
48 48 3 3 
48 
1 48 40 66 
3 
432 40 66 
2640 
I1018 23:07:11.731767  8982 net.cpp:150] Setting up conv4_3/incep/2_1/conv
I1018 23:07:11.731775  8982 net.cpp:157] Top shape: 1 48 40 66 (126720)
I1018 23:07:11.731777  8982 net.cpp:165] Memory required for data: 739031040
I1018 23:07:11.731782  8982 layer_factory.hpp:77] Creating layer conv4_3/incep/2_1/relu
I1018 23:07:11.731786  8982 net.cpp:100] Creating Layer conv4_3/incep/2_1/relu
I1018 23:07:11.731789  8982 net.cpp:434] conv4_3/incep/2_1/relu <- conv4_3/incep/2_1
I1018 23:07:11.731793  8982 net.cpp:395] conv4_3/incep/2_1/relu -> conv4_3/incep/2_1 (in-place)
1 48 40 66 
I1018 23:07:11.731906  8982 net.cpp:150] Setting up conv4_3/incep/2_1/relu
I1018 23:07:11.731910  8982 net.cpp:157] Top shape: 1 48 40 66 (126720)
I1018 23:07:11.731914  8982 net.cpp:165] Memory required for data: 739537920
I1018 23:07:11.731915  8982 layer_factory.hpp:77] Creating layer conv4_3/incep
I1018 23:07:11.731920  8982 net.cpp:100] Creating Layer conv4_3/incep
I1018 23:07:11.731922  8982 net.cpp:434] conv4_3/incep <- conv4_3/incep/0
I1018 23:07:11.731925  8982 net.cpp:434] conv4_3/incep <- conv4_3/incep/1_0
I1018 23:07:11.731928  8982 net.cpp:434] conv4_3/incep <- conv4_3/incep/2_1
I1018 23:07:11.731932  8982 net.cpp:408] conv4_3/incep -> conv4_3/incep
1 240 40 66 
I1018 23:07:11.731953  8982 net.cpp:150] Setting up conv4_3/incep
I1018 23:07:11.731957  8982 net.cpp:157] Top shape: 1 240 40 66 (633600)
I1018 23:07:11.731959  8982 net.cpp:165] Memory required for data: 742072320
I1018 23:07:11.731961  8982 layer_factory.hpp:77] Creating layer conv4_3/out/conv
I1018 23:07:11.731967  8982 net.cpp:100] Creating Layer conv4_3/out/conv
I1018 23:07:11.731971  8982 net.cpp:434] conv4_3/out/conv <- conv4_3/incep
I1018 23:07:11.731974  8982 net.cpp:408] conv4_3/out/conv -> conv4_3/out
2 
2 
2 
2 
256 240 1 1 
256 
1 256 40 66 
3 
240 40 66 
2640 
I1018 23:07:11.732647  8982 net.cpp:150] Setting up conv4_3/out/conv
I1018 23:07:11.732655  8982 net.cpp:157] Top shape: 1 256 40 66 (675840)
I1018 23:07:11.732657  8982 net.cpp:165] Memory required for data: 744775680
I1018 23:07:11.732661  8982 layer_factory.hpp:77] Creating layer conv4_3/input
I1018 23:07:11.732666  8982 net.cpp:100] Creating Layer conv4_3/input
I1018 23:07:11.732669  8982 net.cpp:434] conv4_3/input <- conv4_2_conv4_2_0_split_3
I1018 23:07:11.732673  8982 net.cpp:408] conv4_3/input -> conv4_3/input
1 256 40 66 
I1018 23:07:11.732702  8982 net.cpp:150] Setting up conv4_3/input
I1018 23:07:11.732707  8982 net.cpp:157] Top shape: 1 256 40 66 (675840)
I1018 23:07:11.732708  8982 net.cpp:165] Memory required for data: 747479040
I1018 23:07:11.732712  8982 layer_factory.hpp:77] Creating layer conv4_3
I1018 23:07:11.732715  8982 net.cpp:100] Creating Layer conv4_3
I1018 23:07:11.732718  8982 net.cpp:434] conv4_3 <- conv4_3/out
I1018 23:07:11.732722  8982 net.cpp:434] conv4_3 <- conv4_3/input
I1018 23:07:11.732724  8982 net.cpp:408] conv4_3 -> conv4_3
1 256 40 66 
I1018 23:07:11.732743  8982 net.cpp:150] Setting up conv4_3
I1018 23:07:11.732746  8982 net.cpp:157] Top shape: 1 256 40 66 (675840)
I1018 23:07:11.732748  8982 net.cpp:165] Memory required for data: 750182400
I1018 23:07:11.732750  8982 layer_factory.hpp:77] Creating layer conv4_3_conv4_3_0_split
I1018 23:07:11.732754  8982 net.cpp:100] Creating Layer conv4_3_conv4_3_0_split
I1018 23:07:11.732756  8982 net.cpp:434] conv4_3_conv4_3_0_split <- conv4_3
I1018 23:07:11.732760  8982 net.cpp:408] conv4_3_conv4_3_0_split -> conv4_3_conv4_3_0_split_0
I1018 23:07:11.732769  8982 net.cpp:408] conv4_3_conv4_3_0_split -> conv4_3_conv4_3_0_split_1
I1018 23:07:11.732774  8982 net.cpp:408] conv4_3_conv4_3_0_split -> conv4_3_conv4_3_0_split_2
I1018 23:07:11.732777  8982 net.cpp:408] conv4_3_conv4_3_0_split -> conv4_3_conv4_3_0_split_3
1 256 40 66 
1 256 40 66 
1 256 40 66 
1 256 40 66 
I1018 23:07:11.732821  8982 net.cpp:150] Setting up conv4_3_conv4_3_0_split
I1018 23:07:11.732825  8982 net.cpp:157] Top shape: 1 256 40 66 (675840)
I1018 23:07:11.732828  8982 net.cpp:157] Top shape: 1 256 40 66 (675840)
I1018 23:07:11.732831  8982 net.cpp:157] Top shape: 1 256 40 66 (675840)
I1018 23:07:11.732834  8982 net.cpp:157] Top shape: 1 256 40 66 (675840)
I1018 23:07:11.732836  8982 net.cpp:165] Memory required for data: 760995840
I1018 23:07:11.732838  8982 layer_factory.hpp:77] Creating layer conv4_4/incep/0/conv
I1018 23:07:11.732843  8982 net.cpp:100] Creating Layer conv4_4/incep/0/conv
I1018 23:07:11.732846  8982 net.cpp:434] conv4_4/incep/0/conv <- conv4_3_conv4_3_0_split_0
I1018 23:07:11.732851  8982 net.cpp:408] conv4_4/incep/0/conv -> conv4_4/incep/0
2 
2 
2 
2 
64 256 1 1 
64 
1 64 40 66 
3 
256 40 66 
2640 
I1018 23:07:11.733086  8982 net.cpp:150] Setting up conv4_4/incep/0/conv
I1018 23:07:11.733090  8982 net.cpp:157] Top shape: 1 64 40 66 (168960)
I1018 23:07:11.733093  8982 net.cpp:165] Memory required for data: 761671680
I1018 23:07:11.733098  8982 layer_factory.hpp:77] Creating layer conv4_4/incep/0/relu
I1018 23:07:11.733101  8982 net.cpp:100] Creating Layer conv4_4/incep/0/relu
I1018 23:07:11.733103  8982 net.cpp:434] conv4_4/incep/0/relu <- conv4_4/incep/0
I1018 23:07:11.733108  8982 net.cpp:395] conv4_4/incep/0/relu -> conv4_4/incep/0 (in-place)
1 64 40 66 
I1018 23:07:11.733552  8982 net.cpp:150] Setting up conv4_4/incep/0/relu
I1018 23:07:11.733558  8982 net.cpp:157] Top shape: 1 64 40 66 (168960)
I1018 23:07:11.733561  8982 net.cpp:165] Memory required for data: 762347520
I1018 23:07:11.733563  8982 layer_factory.hpp:77] Creating layer conv4_4/incep/1_reduce/conv
I1018 23:07:11.733569  8982 net.cpp:100] Creating Layer conv4_4/incep/1_reduce/conv
I1018 23:07:11.733572  8982 net.cpp:434] conv4_4/incep/1_reduce/conv <- conv4_3_conv4_3_0_split_1
I1018 23:07:11.733577  8982 net.cpp:408] conv4_4/incep/1_reduce/conv -> conv4_4/incep/1_reduce
2 
2 
2 
2 
64 256 1 1 
64 
1 64 40 66 
3 
256 40 66 
2640 
I1018 23:07:11.733821  8982 net.cpp:150] Setting up conv4_4/incep/1_reduce/conv
I1018 23:07:11.733826  8982 net.cpp:157] Top shape: 1 64 40 66 (168960)
I1018 23:07:11.733829  8982 net.cpp:165] Memory required for data: 763023360
I1018 23:07:11.733832  8982 layer_factory.hpp:77] Creating layer conv4_4/incep/1_reduce/relu
I1018 23:07:11.733836  8982 net.cpp:100] Creating Layer conv4_4/incep/1_reduce/relu
I1018 23:07:11.733839  8982 net.cpp:434] conv4_4/incep/1_reduce/relu <- conv4_4/incep/1_reduce
I1018 23:07:11.733844  8982 net.cpp:395] conv4_4/incep/1_reduce/relu -> conv4_4/incep/1_reduce (in-place)
1 64 40 66 
I1018 23:07:11.733953  8982 net.cpp:150] Setting up conv4_4/incep/1_reduce/relu
I1018 23:07:11.733958  8982 net.cpp:157] Top shape: 1 64 40 66 (168960)
I1018 23:07:11.733960  8982 net.cpp:165] Memory required for data: 763699200
I1018 23:07:11.733963  8982 layer_factory.hpp:77] Creating layer conv4_4/incep/1_0/conv
I1018 23:07:11.733968  8982 net.cpp:100] Creating Layer conv4_4/incep/1_0/conv
I1018 23:07:11.733971  8982 net.cpp:434] conv4_4/incep/1_0/conv <- conv4_4/incep/1_reduce
I1018 23:07:11.733975  8982 net.cpp:408] conv4_4/incep/1_0/conv -> conv4_4/incep/1_0
2 
2 
2 
2 
128 64 3 3 
128 
1 128 40 66 
3 
576 40 66 
2640 
I1018 23:07:11.735415  8982 net.cpp:150] Setting up conv4_4/incep/1_0/conv
I1018 23:07:11.735424  8982 net.cpp:157] Top shape: 1 128 40 66 (337920)
I1018 23:07:11.735425  8982 net.cpp:165] Memory required for data: 765050880
I1018 23:07:11.735430  8982 layer_factory.hpp:77] Creating layer conv4_4/incep/1_0/relu
I1018 23:07:11.735435  8982 net.cpp:100] Creating Layer conv4_4/incep/1_0/relu
I1018 23:07:11.735440  8982 net.cpp:434] conv4_4/incep/1_0/relu <- conv4_4/incep/1_0
I1018 23:07:11.735445  8982 net.cpp:395] conv4_4/incep/1_0/relu -> conv4_4/incep/1_0 (in-place)
1 128 40 66 
I1018 23:07:11.735884  8982 net.cpp:150] Setting up conv4_4/incep/1_0/relu
I1018 23:07:11.735890  8982 net.cpp:157] Top shape: 1 128 40 66 (337920)
I1018 23:07:11.735893  8982 net.cpp:165] Memory required for data: 766402560
I1018 23:07:11.735894  8982 layer_factory.hpp:77] Creating layer conv4_4/incep/2_reduce/conv
I1018 23:07:11.735901  8982 net.cpp:100] Creating Layer conv4_4/incep/2_reduce/conv
I1018 23:07:11.735904  8982 net.cpp:434] conv4_4/incep/2_reduce/conv <- conv4_3_conv4_3_0_split_2
I1018 23:07:11.735908  8982 net.cpp:408] conv4_4/incep/2_reduce/conv -> conv4_4/incep/2_reduce
2 
2 
2 
2 
24 256 1 1 
24 
1 24 40 66 
3 
256 40 66 
2640 
I1018 23:07:11.736124  8982 net.cpp:150] Setting up conv4_4/incep/2_reduce/conv
I1018 23:07:11.736130  8982 net.cpp:157] Top shape: 1 24 40 66 (63360)
I1018 23:07:11.736132  8982 net.cpp:165] Memory required for data: 766656000
I1018 23:07:11.736137  8982 layer_factory.hpp:77] Creating layer conv4_4/incep/2_reduce/relu
I1018 23:07:11.736141  8982 net.cpp:100] Creating Layer conv4_4/incep/2_reduce/relu
I1018 23:07:11.736143  8982 net.cpp:434] conv4_4/incep/2_reduce/relu <- conv4_4/incep/2_reduce
I1018 23:07:11.736147  8982 net.cpp:395] conv4_4/incep/2_reduce/relu -> conv4_4/incep/2_reduce (in-place)
1 24 40 66 
I1018 23:07:11.736259  8982 net.cpp:150] Setting up conv4_4/incep/2_reduce/relu
I1018 23:07:11.736264  8982 net.cpp:157] Top shape: 1 24 40 66 (63360)
I1018 23:07:11.736266  8982 net.cpp:165] Memory required for data: 766909440
I1018 23:07:11.736268  8982 layer_factory.hpp:77] Creating layer conv4_4/incep/2_0/conv
I1018 23:07:11.736274  8982 net.cpp:100] Creating Layer conv4_4/incep/2_0/conv
I1018 23:07:11.736277  8982 net.cpp:434] conv4_4/incep/2_0/conv <- conv4_4/incep/2_reduce
I1018 23:07:11.736281  8982 net.cpp:408] conv4_4/incep/2_0/conv -> conv4_4/incep/2_0
2 
2 
2 
2 
48 24 3 3 
48 
1 48 40 66 
3 
216 40 66 
2640 
I1018 23:07:11.737485  8982 net.cpp:150] Setting up conv4_4/incep/2_0/conv
I1018 23:07:11.737493  8982 net.cpp:157] Top shape: 1 48 40 66 (126720)
I1018 23:07:11.737495  8982 net.cpp:165] Memory required for data: 767416320
I1018 23:07:11.737499  8982 layer_factory.hpp:77] Creating layer conv4_4/incep/2_0/relu
I1018 23:07:11.737504  8982 net.cpp:100] Creating Layer conv4_4/incep/2_0/relu
I1018 23:07:11.737507  8982 net.cpp:434] conv4_4/incep/2_0/relu <- conv4_4/incep/2_0
I1018 23:07:11.737510  8982 net.cpp:395] conv4_4/incep/2_0/relu -> conv4_4/incep/2_0 (in-place)
1 48 40 66 
I1018 23:07:11.737622  8982 net.cpp:150] Setting up conv4_4/incep/2_0/relu
I1018 23:07:11.737627  8982 net.cpp:157] Top shape: 1 48 40 66 (126720)
I1018 23:07:11.737629  8982 net.cpp:165] Memory required for data: 767923200
I1018 23:07:11.737632  8982 layer_factory.hpp:77] Creating layer conv4_4/incep/2_1/conv
I1018 23:07:11.737638  8982 net.cpp:100] Creating Layer conv4_4/incep/2_1/conv
I1018 23:07:11.737640  8982 net.cpp:434] conv4_4/incep/2_1/conv <- conv4_4/incep/2_0
I1018 23:07:11.737645  8982 net.cpp:408] conv4_4/incep/2_1/conv -> conv4_4/incep/2_1
2 
2 
2 
2 
48 48 3 3 
48 
1 48 40 66 
3 
432 40 66 
2640 
I1018 23:07:11.738883  8982 net.cpp:150] Setting up conv4_4/incep/2_1/conv
I1018 23:07:11.738890  8982 net.cpp:157] Top shape: 1 48 40 66 (126720)
I1018 23:07:11.738893  8982 net.cpp:165] Memory required for data: 768430080
I1018 23:07:11.738898  8982 layer_factory.hpp:77] Creating layer conv4_4/incep/2_1/relu
I1018 23:07:11.738901  8982 net.cpp:100] Creating Layer conv4_4/incep/2_1/relu
I1018 23:07:11.738904  8982 net.cpp:434] conv4_4/incep/2_1/relu <- conv4_4/incep/2_1
I1018 23:07:11.738909  8982 net.cpp:395] conv4_4/incep/2_1/relu -> conv4_4/incep/2_1 (in-place)
1 48 40 66 
I1018 23:07:11.739346  8982 net.cpp:150] Setting up conv4_4/incep/2_1/relu
I1018 23:07:11.739352  8982 net.cpp:157] Top shape: 1 48 40 66 (126720)
I1018 23:07:11.739354  8982 net.cpp:165] Memory required for data: 768936960
I1018 23:07:11.739361  8982 layer_factory.hpp:77] Creating layer conv4_4/incep
I1018 23:07:11.739365  8982 net.cpp:100] Creating Layer conv4_4/incep
I1018 23:07:11.739367  8982 net.cpp:434] conv4_4/incep <- conv4_4/incep/0
I1018 23:07:11.739372  8982 net.cpp:434] conv4_4/incep <- conv4_4/incep/1_0
I1018 23:07:11.739374  8982 net.cpp:434] conv4_4/incep <- conv4_4/incep/2_1
I1018 23:07:11.739378  8982 net.cpp:408] conv4_4/incep -> conv4_4/incep
1 240 40 66 
I1018 23:07:11.739400  8982 net.cpp:150] Setting up conv4_4/incep
I1018 23:07:11.739404  8982 net.cpp:157] Top shape: 1 240 40 66 (633600)
I1018 23:07:11.739406  8982 net.cpp:165] Memory required for data: 771471360
I1018 23:07:11.739408  8982 layer_factory.hpp:77] Creating layer conv4_4/out/conv
I1018 23:07:11.739414  8982 net.cpp:100] Creating Layer conv4_4/out/conv
I1018 23:07:11.739418  8982 net.cpp:434] conv4_4/out/conv <- conv4_4/incep
I1018 23:07:11.739420  8982 net.cpp:408] conv4_4/out/conv -> conv4_4/out
2 
2 
2 
2 
256 240 1 1 
256 
1 256 40 66 
3 
240 40 66 
2640 
I1018 23:07:11.739832  8982 net.cpp:150] Setting up conv4_4/out/conv
I1018 23:07:11.739837  8982 net.cpp:157] Top shape: 1 256 40 66 (675840)
I1018 23:07:11.739840  8982 net.cpp:165] Memory required for data: 774174720
I1018 23:07:11.739843  8982 layer_factory.hpp:77] Creating layer conv4_4/input
I1018 23:07:11.739847  8982 net.cpp:100] Creating Layer conv4_4/input
I1018 23:07:11.739850  8982 net.cpp:434] conv4_4/input <- conv4_3_conv4_3_0_split_3
I1018 23:07:11.739854  8982 net.cpp:408] conv4_4/input -> conv4_4/input
1 256 40 66 
I1018 23:07:11.739872  8982 net.cpp:150] Setting up conv4_4/input
I1018 23:07:11.739876  8982 net.cpp:157] Top shape: 1 256 40 66 (675840)
I1018 23:07:11.739878  8982 net.cpp:165] Memory required for data: 776878080
I1018 23:07:11.739881  8982 layer_factory.hpp:77] Creating layer conv4_4
I1018 23:07:11.739884  8982 net.cpp:100] Creating Layer conv4_4
I1018 23:07:11.739887  8982 net.cpp:434] conv4_4 <- conv4_4/out
I1018 23:07:11.739890  8982 net.cpp:434] conv4_4 <- conv4_4/input
I1018 23:07:11.739893  8982 net.cpp:408] conv4_4 -> conv4_4
1 256 40 66 
I1018 23:07:11.739912  8982 net.cpp:150] Setting up conv4_4
I1018 23:07:11.739915  8982 net.cpp:157] Top shape: 1 256 40 66 (675840)
I1018 23:07:11.739917  8982 net.cpp:165] Memory required for data: 779581440
I1018 23:07:11.739920  8982 layer_factory.hpp:77] Creating layer conv4_4_conv4_4_0_split
I1018 23:07:11.739924  8982 net.cpp:100] Creating Layer conv4_4_conv4_4_0_split
I1018 23:07:11.739926  8982 net.cpp:434] conv4_4_conv4_4_0_split <- conv4_4
I1018 23:07:11.739930  8982 net.cpp:408] conv4_4_conv4_4_0_split -> conv4_4_conv4_4_0_split_0
I1018 23:07:11.739935  8982 net.cpp:408] conv4_4_conv4_4_0_split -> conv4_4_conv4_4_0_split_1
I1018 23:07:11.739939  8982 net.cpp:408] conv4_4_conv4_4_0_split -> conv4_4_conv4_4_0_split_2
I1018 23:07:11.739944  8982 net.cpp:408] conv4_4_conv4_4_0_split -> conv4_4_conv4_4_0_split_3
I1018 23:07:11.739948  8982 net.cpp:408] conv4_4_conv4_4_0_split -> conv4_4_conv4_4_0_split_4
I1018 23:07:11.739953  8982 net.cpp:408] conv4_4_conv4_4_0_split -> conv4_4_conv4_4_0_split_5
1 256 40 66 
1 256 40 66 
1 256 40 66 
1 256 40 66 
1 256 40 66 
1 256 40 66 
I1018 23:07:11.740017  8982 net.cpp:150] Setting up conv4_4_conv4_4_0_split
I1018 23:07:11.740021  8982 net.cpp:157] Top shape: 1 256 40 66 (675840)
I1018 23:07:11.740025  8982 net.cpp:157] Top shape: 1 256 40 66 (675840)
I1018 23:07:11.740026  8982 net.cpp:157] Top shape: 1 256 40 66 (675840)
I1018 23:07:11.740030  8982 net.cpp:157] Top shape: 1 256 40 66 (675840)
I1018 23:07:11.740032  8982 net.cpp:157] Top shape: 1 256 40 66 (675840)
I1018 23:07:11.740034  8982 net.cpp:157] Top shape: 1 256 40 66 (675840)
I1018 23:07:11.740036  8982 net.cpp:165] Memory required for data: 795801600
I1018 23:07:11.740039  8982 layer_factory.hpp:77] Creating layer conv5_1/incep/0/conv
I1018 23:07:11.740044  8982 net.cpp:100] Creating Layer conv5_1/incep/0/conv
I1018 23:07:11.740047  8982 net.cpp:434] conv5_1/incep/0/conv <- conv4_4_conv4_4_0_split_0
I1018 23:07:11.740053  8982 net.cpp:408] conv5_1/incep/0/conv -> conv5_1/incep/0
2 
2 
2 
2 
64 256 1 1 
64 
1 64 20 33 
3 
256 20 33 
660 
I1018 23:07:11.740298  8982 net.cpp:150] Setting up conv5_1/incep/0/conv
I1018 23:07:11.740303  8982 net.cpp:157] Top shape: 1 64 20 33 (42240)
I1018 23:07:11.740305  8982 net.cpp:165] Memory required for data: 795970560
I1018 23:07:11.740309  8982 layer_factory.hpp:77] Creating layer conv5_1/incep/0/relu
I1018 23:07:11.740314  8982 net.cpp:100] Creating Layer conv5_1/incep/0/relu
I1018 23:07:11.740316  8982 net.cpp:434] conv5_1/incep/0/relu <- conv5_1/incep/0
I1018 23:07:11.740320  8982 net.cpp:395] conv5_1/incep/0/relu -> conv5_1/incep/0 (in-place)
1 64 20 33 
I1018 23:07:11.740435  8982 net.cpp:150] Setting up conv5_1/incep/0/relu
I1018 23:07:11.740440  8982 net.cpp:157] Top shape: 1 64 20 33 (42240)
I1018 23:07:11.740442  8982 net.cpp:165] Memory required for data: 796139520
I1018 23:07:11.740444  8982 layer_factory.hpp:77] Creating layer conv5_1/incep/1_reduce/conv
I1018 23:07:11.740450  8982 net.cpp:100] Creating Layer conv5_1/incep/1_reduce/conv
I1018 23:07:11.740453  8982 net.cpp:434] conv5_1/incep/1_reduce/conv <- conv4_4_conv4_4_0_split_1
I1018 23:07:11.740458  8982 net.cpp:408] conv5_1/incep/1_reduce/conv -> conv5_1/incep/1_reduce
2 
2 
2 
2 
96 256 1 1 
96 
1 96 20 33 
3 
256 20 33 
660 
I1018 23:07:11.740736  8982 net.cpp:150] Setting up conv5_1/incep/1_reduce/conv
I1018 23:07:11.740741  8982 net.cpp:157] Top shape: 1 96 20 33 (63360)
I1018 23:07:11.740742  8982 net.cpp:165] Memory required for data: 796392960
I1018 23:07:11.740746  8982 layer_factory.hpp:77] Creating layer conv5_1/incep/1_reduce/relu
I1018 23:07:11.740751  8982 net.cpp:100] Creating Layer conv5_1/incep/1_reduce/relu
I1018 23:07:11.740753  8982 net.cpp:434] conv5_1/incep/1_reduce/relu <- conv5_1/incep/1_reduce
I1018 23:07:11.740757  8982 net.cpp:395] conv5_1/incep/1_reduce/relu -> conv5_1/incep/1_reduce (in-place)
1 96 20 33 
I1018 23:07:11.741225  8982 net.cpp:150] Setting up conv5_1/incep/1_reduce/relu
I1018 23:07:11.741230  8982 net.cpp:157] Top shape: 1 96 20 33 (63360)
I1018 23:07:11.741233  8982 net.cpp:165] Memory required for data: 796646400
I1018 23:07:11.741235  8982 layer_factory.hpp:77] Creating layer conv5_1/incep/1_0/conv
I1018 23:07:11.741241  8982 net.cpp:100] Creating Layer conv5_1/incep/1_0/conv
I1018 23:07:11.741245  8982 net.cpp:434] conv5_1/incep/1_0/conv <- conv5_1/incep/1_reduce
I1018 23:07:11.741250  8982 net.cpp:408] conv5_1/incep/1_0/conv -> conv5_1/incep/1_0
2 
2 
2 
2 
192 96 3 3 
192 
1 192 20 33 
3 
864 20 33 
660 
I1018 23:07:11.743304  8982 net.cpp:150] Setting up conv5_1/incep/1_0/conv
I1018 23:07:11.743310  8982 net.cpp:157] Top shape: 1 192 20 33 (126720)
I1018 23:07:11.743314  8982 net.cpp:165] Memory required for data: 797153280
I1018 23:07:11.743324  8982 layer_factory.hpp:77] Creating layer conv5_1/incep/1_0/relu
I1018 23:07:11.743330  8982 net.cpp:100] Creating Layer conv5_1/incep/1_0/relu
I1018 23:07:11.743332  8982 net.cpp:434] conv5_1/incep/1_0/relu <- conv5_1/incep/1_0
I1018 23:07:11.743336  8982 net.cpp:395] conv5_1/incep/1_0/relu -> conv5_1/incep/1_0 (in-place)
1 192 20 33 
I1018 23:07:11.743453  8982 net.cpp:150] Setting up conv5_1/incep/1_0/relu
I1018 23:07:11.743458  8982 net.cpp:157] Top shape: 1 192 20 33 (126720)
I1018 23:07:11.743459  8982 net.cpp:165] Memory required for data: 797660160
I1018 23:07:11.743463  8982 layer_factory.hpp:77] Creating layer conv5_1/incep/2_reduce/conv
I1018 23:07:11.743468  8982 net.cpp:100] Creating Layer conv5_1/incep/2_reduce/conv
I1018 23:07:11.743471  8982 net.cpp:434] conv5_1/incep/2_reduce/conv <- conv4_4_conv4_4_0_split_2
I1018 23:07:11.743475  8982 net.cpp:408] conv5_1/incep/2_reduce/conv -> conv5_1/incep/2_reduce
2 
2 
2 
2 
32 256 1 1 
32 
1 32 20 33 
3 
256 20 33 
660 
I1018 23:07:11.743949  8982 net.cpp:150] Setting up conv5_1/incep/2_reduce/conv
I1018 23:07:11.743955  8982 net.cpp:157] Top shape: 1 32 20 33 (21120)
I1018 23:07:11.743958  8982 net.cpp:165] Memory required for data: 797744640
I1018 23:07:11.743963  8982 layer_factory.hpp:77] Creating layer conv5_1/incep/2_reduce/relu
I1018 23:07:11.743969  8982 net.cpp:100] Creating Layer conv5_1/incep/2_reduce/relu
I1018 23:07:11.743973  8982 net.cpp:434] conv5_1/incep/2_reduce/relu <- conv5_1/incep/2_reduce
I1018 23:07:11.743976  8982 net.cpp:395] conv5_1/incep/2_reduce/relu -> conv5_1/incep/2_reduce (in-place)
1 32 20 33 
I1018 23:07:11.744424  8982 net.cpp:150] Setting up conv5_1/incep/2_reduce/relu
I1018 23:07:11.744431  8982 net.cpp:157] Top shape: 1 32 20 33 (21120)
I1018 23:07:11.744432  8982 net.cpp:165] Memory required for data: 797829120
I1018 23:07:11.744436  8982 layer_factory.hpp:77] Creating layer conv5_1/incep/2_0/conv
I1018 23:07:11.744441  8982 net.cpp:100] Creating Layer conv5_1/incep/2_0/conv
I1018 23:07:11.744444  8982 net.cpp:434] conv5_1/incep/2_0/conv <- conv5_1/incep/2_reduce
I1018 23:07:11.744448  8982 net.cpp:408] conv5_1/incep/2_0/conv -> conv5_1/incep/2_0
2 
2 
2 
2 
64 32 3 3 
64 
1 64 20 33 
3 
288 20 33 
660 
I1018 23:07:11.745692  8982 net.cpp:150] Setting up conv5_1/incep/2_0/conv
I1018 23:07:11.745699  8982 net.cpp:157] Top shape: 1 64 20 33 (42240)
I1018 23:07:11.745702  8982 net.cpp:165] Memory required for data: 797998080
I1018 23:07:11.745707  8982 layer_factory.hpp:77] Creating layer conv5_1/incep/2_0/relu
I1018 23:07:11.745712  8982 net.cpp:100] Creating Layer conv5_1/incep/2_0/relu
I1018 23:07:11.745714  8982 net.cpp:434] conv5_1/incep/2_0/relu <- conv5_1/incep/2_0
I1018 23:07:11.745718  8982 net.cpp:395] conv5_1/incep/2_0/relu -> conv5_1/incep/2_0 (in-place)
1 64 20 33 
I1018 23:07:11.746156  8982 net.cpp:150] Setting up conv5_1/incep/2_0/relu
I1018 23:07:11.746162  8982 net.cpp:157] Top shape: 1 64 20 33 (42240)
I1018 23:07:11.746165  8982 net.cpp:165] Memory required for data: 798167040
I1018 23:07:11.746167  8982 layer_factory.hpp:77] Creating layer conv5_1/incep/2_1/conv
I1018 23:07:11.746173  8982 net.cpp:100] Creating Layer conv5_1/incep/2_1/conv
I1018 23:07:11.746176  8982 net.cpp:434] conv5_1/incep/2_1/conv <- conv5_1/incep/2_0
I1018 23:07:11.746181  8982 net.cpp:408] conv5_1/incep/2_1/conv -> conv5_1/incep/2_1
2 
2 
2 
2 
64 64 3 3 
64 
1 64 20 33 
3 
576 20 33 
660 
I1018 23:07:11.747489  8982 net.cpp:150] Setting up conv5_1/incep/2_1/conv
I1018 23:07:11.747496  8982 net.cpp:157] Top shape: 1 64 20 33 (42240)
I1018 23:07:11.747498  8982 net.cpp:165] Memory required for data: 798336000
I1018 23:07:11.747503  8982 layer_factory.hpp:77] Creating layer conv5_1/incep/2_1/relu
I1018 23:07:11.747509  8982 net.cpp:100] Creating Layer conv5_1/incep/2_1/relu
I1018 23:07:11.747511  8982 net.cpp:434] conv5_1/incep/2_1/relu <- conv5_1/incep/2_1
I1018 23:07:11.747515  8982 net.cpp:395] conv5_1/incep/2_1/relu -> conv5_1/incep/2_1 (in-place)
1 64 20 33 
I1018 23:07:11.747627  8982 net.cpp:150] Setting up conv5_1/incep/2_1/relu
I1018 23:07:11.747632  8982 net.cpp:157] Top shape: 1 64 20 33 (42240)
I1018 23:07:11.747634  8982 net.cpp:165] Memory required for data: 798504960
I1018 23:07:11.747637  8982 layer_factory.hpp:77] Creating layer conv5_1/incep/pool
I1018 23:07:11.747642  8982 net.cpp:100] Creating Layer conv5_1/incep/pool
I1018 23:07:11.747644  8982 net.cpp:434] conv5_1/incep/pool <- conv4_4_conv4_4_0_split_3
I1018 23:07:11.747649  8982 net.cpp:408] conv5_1/incep/pool -> conv5_1/incep/pool
1 256 20 33 
1 256 20 33 
I1018 23:07:11.747684  8982 net.cpp:150] Setting up conv5_1/incep/pool
I1018 23:07:11.747689  8982 net.cpp:157] Top shape: 1 256 20 33 (168960)
I1018 23:07:11.747691  8982 net.cpp:165] Memory required for data: 799180800
I1018 23:07:11.747694  8982 layer_factory.hpp:77] Creating layer conv5_1/incep/poolproj/conv
I1018 23:07:11.747699  8982 net.cpp:100] Creating Layer conv5_1/incep/poolproj/conv
I1018 23:07:11.747701  8982 net.cpp:434] conv5_1/incep/poolproj/conv <- conv5_1/incep/pool
I1018 23:07:11.747705  8982 net.cpp:408] conv5_1/incep/poolproj/conv -> conv5_1/incep/poolproj
2 
2 
2 
2 
128 256 1 1 
128 
1 128 20 33 
3 
256 20 33 
660 
I1018 23:07:11.748008  8982 net.cpp:150] Setting up conv5_1/incep/poolproj/conv
I1018 23:07:11.748016  8982 net.cpp:157] Top shape: 1 128 20 33 (84480)
I1018 23:07:11.748019  8982 net.cpp:165] Memory required for data: 799518720
I1018 23:07:11.748023  8982 layer_factory.hpp:77] Creating layer conv5_1/incep/poolproj/relu
I1018 23:07:11.748028  8982 net.cpp:100] Creating Layer conv5_1/incep/poolproj/relu
I1018 23:07:11.748030  8982 net.cpp:434] conv5_1/incep/poolproj/relu <- conv5_1/incep/poolproj
I1018 23:07:11.748034  8982 net.cpp:395] conv5_1/incep/poolproj/relu -> conv5_1/incep/poolproj (in-place)
1 128 20 33 
I1018 23:07:11.748486  8982 net.cpp:150] Setting up conv5_1/incep/poolproj/relu
I1018 23:07:11.748492  8982 net.cpp:157] Top shape: 1 128 20 33 (84480)
I1018 23:07:11.748494  8982 net.cpp:165] Memory required for data: 799856640
I1018 23:07:11.748497  8982 layer_factory.hpp:77] Creating layer conv5_1/incep
I1018 23:07:11.748502  8982 net.cpp:100] Creating Layer conv5_1/incep
I1018 23:07:11.748503  8982 net.cpp:434] conv5_1/incep <- conv5_1/incep/0
I1018 23:07:11.748507  8982 net.cpp:434] conv5_1/incep <- conv5_1/incep/1_0
I1018 23:07:11.748510  8982 net.cpp:434] conv5_1/incep <- conv5_1/incep/2_1
I1018 23:07:11.748513  8982 net.cpp:434] conv5_1/incep <- conv5_1/incep/poolproj
I1018 23:07:11.748517  8982 net.cpp:408] conv5_1/incep -> conv5_1/incep
1 448 20 33 
I1018 23:07:11.748539  8982 net.cpp:150] Setting up conv5_1/incep
I1018 23:07:11.748543  8982 net.cpp:157] Top shape: 1 448 20 33 (295680)
I1018 23:07:11.748545  8982 net.cpp:165] Memory required for data: 801039360
I1018 23:07:11.748548  8982 layer_factory.hpp:77] Creating layer conv5_1/out/conv
I1018 23:07:11.748553  8982 net.cpp:100] Creating Layer conv5_1/out/conv
I1018 23:07:11.748556  8982 net.cpp:434] conv5_1/out/conv <- conv5_1/incep
I1018 23:07:11.748560  8982 net.cpp:408] conv5_1/out/conv -> conv5_1/out
2 
2 
2 
2 
384 448 1 1 
384 
1 384 20 33 
3 
448 20 33 
660 
I1018 23:07:11.749647  8982 net.cpp:150] Setting up conv5_1/out/conv
I1018 23:07:11.749655  8982 net.cpp:157] Top shape: 1 384 20 33 (253440)
I1018 23:07:11.749656  8982 net.cpp:165] Memory required for data: 802053120
I1018 23:07:11.749660  8982 layer_factory.hpp:77] Creating layer conv5_1/proj
I1018 23:07:11.749667  8982 net.cpp:100] Creating Layer conv5_1/proj
I1018 23:07:11.749670  8982 net.cpp:434] conv5_1/proj <- conv4_4_conv4_4_0_split_4
I1018 23:07:11.749675  8982 net.cpp:408] conv5_1/proj -> conv5_1/proj
2 
2 
2 
2 
384 256 1 1 
384 
1 384 20 33 
3 
256 20 33 
660 
I1018 23:07:11.750480  8982 net.cpp:150] Setting up conv5_1/proj
I1018 23:07:11.750486  8982 net.cpp:157] Top shape: 1 384 20 33 (253440)
I1018 23:07:11.750489  8982 net.cpp:165] Memory required for data: 803066880
I1018 23:07:11.750494  8982 layer_factory.hpp:77] Creating layer conv5_1
I1018 23:07:11.750499  8982 net.cpp:100] Creating Layer conv5_1
I1018 23:07:11.750501  8982 net.cpp:434] conv5_1 <- conv5_1/out
I1018 23:07:11.750504  8982 net.cpp:434] conv5_1 <- conv5_1/proj
I1018 23:07:11.750509  8982 net.cpp:408] conv5_1 -> conv5_1
1 384 20 33 
I1018 23:07:11.750530  8982 net.cpp:150] Setting up conv5_1
I1018 23:07:11.750535  8982 net.cpp:157] Top shape: 1 384 20 33 (253440)
I1018 23:07:11.750536  8982 net.cpp:165] Memory required for data: 804080640
I1018 23:07:11.750538  8982 layer_factory.hpp:77] Creating layer conv5_1_conv5_1_0_split
I1018 23:07:11.750543  8982 net.cpp:100] Creating Layer conv5_1_conv5_1_0_split
I1018 23:07:11.750545  8982 net.cpp:434] conv5_1_conv5_1_0_split <- conv5_1
I1018 23:07:11.750552  8982 net.cpp:408] conv5_1_conv5_1_0_split -> conv5_1_conv5_1_0_split_0
I1018 23:07:11.750557  8982 net.cpp:408] conv5_1_conv5_1_0_split -> conv5_1_conv5_1_0_split_1
I1018 23:07:11.750562  8982 net.cpp:408] conv5_1_conv5_1_0_split -> conv5_1_conv5_1_0_split_2
I1018 23:07:11.750566  8982 net.cpp:408] conv5_1_conv5_1_0_split -> conv5_1_conv5_1_0_split_3
1 384 20 33 
1 384 20 33 
1 384 20 33 
1 384 20 33 
I1018 23:07:11.750617  8982 net.cpp:150] Setting up conv5_1_conv5_1_0_split
I1018 23:07:11.750622  8982 net.cpp:157] Top shape: 1 384 20 33 (253440)
I1018 23:07:11.750623  8982 net.cpp:157] Top shape: 1 384 20 33 (253440)
I1018 23:07:11.750629  8982 net.cpp:157] Top shape: 1 384 20 33 (253440)
I1018 23:07:11.750633  8982 net.cpp:157] Top shape: 1 384 20 33 (253440)
I1018 23:07:11.750634  8982 net.cpp:165] Memory required for data: 808135680
I1018 23:07:11.750638  8982 layer_factory.hpp:77] Creating layer conv5_2/incep/0/conv
I1018 23:07:11.750643  8982 net.cpp:100] Creating Layer conv5_2/incep/0/conv
I1018 23:07:11.750645  8982 net.cpp:434] conv5_2/incep/0/conv <- conv5_1_conv5_1_0_split_0
I1018 23:07:11.750650  8982 net.cpp:408] conv5_2/incep/0/conv -> conv5_2/incep/0
2 
2 
2 
2 
64 384 1 1 
64 
1 64 20 33 
3 
384 20 33 
660 
I1018 23:07:11.750928  8982 net.cpp:150] Setting up conv5_2/incep/0/conv
I1018 23:07:11.750933  8982 net.cpp:157] Top shape: 1 64 20 33 (42240)
I1018 23:07:11.750936  8982 net.cpp:165] Memory required for data: 808304640
I1018 23:07:11.750939  8982 layer_factory.hpp:77] Creating layer conv5_2/incep/0/relu
I1018 23:07:11.750943  8982 net.cpp:100] Creating Layer conv5_2/incep/0/relu
I1018 23:07:11.750946  8982 net.cpp:434] conv5_2/incep/0/relu <- conv5_2/incep/0
I1018 23:07:11.750949  8982 net.cpp:395] conv5_2/incep/0/relu -> conv5_2/incep/0 (in-place)
1 64 20 33 
I1018 23:07:11.751097  8982 net.cpp:150] Setting up conv5_2/incep/0/relu
I1018 23:07:11.751102  8982 net.cpp:157] Top shape: 1 64 20 33 (42240)
I1018 23:07:11.751104  8982 net.cpp:165] Memory required for data: 808473600
I1018 23:07:11.751107  8982 layer_factory.hpp:77] Creating layer conv5_2/incep/1_reduce/conv
I1018 23:07:11.751113  8982 net.cpp:100] Creating Layer conv5_2/incep/1_reduce/conv
I1018 23:07:11.751116  8982 net.cpp:434] conv5_2/incep/1_reduce/conv <- conv5_1_conv5_1_0_split_1
I1018 23:07:11.751121  8982 net.cpp:408] conv5_2/incep/1_reduce/conv -> conv5_2/incep/1_reduce
2 
2 
2 
2 
96 384 1 1 
96 
1 96 20 33 
3 
384 20 33 
660 
I1018 23:07:11.751710  8982 net.cpp:150] Setting up conv5_2/incep/1_reduce/conv
I1018 23:07:11.751716  8982 net.cpp:157] Top shape: 1 96 20 33 (63360)
I1018 23:07:11.751719  8982 net.cpp:165] Memory required for data: 808727040
I1018 23:07:11.751724  8982 layer_factory.hpp:77] Creating layer conv5_2/incep/1_reduce/relu
I1018 23:07:11.751729  8982 net.cpp:100] Creating Layer conv5_2/incep/1_reduce/relu
I1018 23:07:11.751731  8982 net.cpp:434] conv5_2/incep/1_reduce/relu <- conv5_2/incep/1_reduce
I1018 23:07:11.751735  8982 net.cpp:395] conv5_2/incep/1_reduce/relu -> conv5_2/incep/1_reduce (in-place)
1 96 20 33 
I1018 23:07:11.752210  8982 net.cpp:150] Setting up conv5_2/incep/1_reduce/relu
I1018 23:07:11.752216  8982 net.cpp:157] Top shape: 1 96 20 33 (63360)
I1018 23:07:11.752219  8982 net.cpp:165] Memory required for data: 808980480
I1018 23:07:11.752221  8982 layer_factory.hpp:77] Creating layer conv5_2/incep/1_0/conv
I1018 23:07:11.752229  8982 net.cpp:100] Creating Layer conv5_2/incep/1_0/conv
I1018 23:07:11.752233  8982 net.cpp:434] conv5_2/incep/1_0/conv <- conv5_2/incep/1_reduce
I1018 23:07:11.752238  8982 net.cpp:408] conv5_2/incep/1_0/conv -> conv5_2/incep/1_0
2 
2 
2 
2 
192 96 3 3 
192 
1 192 20 33 
3 
864 20 33 
660 
I1018 23:07:11.754339  8982 net.cpp:150] Setting up conv5_2/incep/1_0/conv
I1018 23:07:11.754348  8982 net.cpp:157] Top shape: 1 192 20 33 (126720)
I1018 23:07:11.754349  8982 net.cpp:165] Memory required for data: 809487360
I1018 23:07:11.754354  8982 layer_factory.hpp:77] Creating layer conv5_2/incep/1_0/relu
I1018 23:07:11.754359  8982 net.cpp:100] Creating Layer conv5_2/incep/1_0/relu
I1018 23:07:11.754362  8982 net.cpp:434] conv5_2/incep/1_0/relu <- conv5_2/incep/1_0
I1018 23:07:11.754366  8982 net.cpp:395] conv5_2/incep/1_0/relu -> conv5_2/incep/1_0 (in-place)
1 192 20 33 
I1018 23:07:11.754490  8982 net.cpp:150] Setting up conv5_2/incep/1_0/relu
I1018 23:07:11.754495  8982 net.cpp:157] Top shape: 1 192 20 33 (126720)
I1018 23:07:11.754498  8982 net.cpp:165] Memory required for data: 809994240
I1018 23:07:11.754500  8982 layer_factory.hpp:77] Creating layer conv5_2/incep/2_reduce/conv
I1018 23:07:11.754506  8982 net.cpp:100] Creating Layer conv5_2/incep/2_reduce/conv
I1018 23:07:11.754513  8982 net.cpp:434] conv5_2/incep/2_reduce/conv <- conv5_1_conv5_1_0_split_2
I1018 23:07:11.754518  8982 net.cpp:408] conv5_2/incep/2_reduce/conv -> conv5_2/incep/2_reduce
2 
2 
2 
2 
32 384 1 1 
32 
1 32 20 33 
3 
384 20 33 
660 
I1018 23:07:11.754763  8982 net.cpp:150] Setting up conv5_2/incep/2_reduce/conv
I1018 23:07:11.754768  8982 net.cpp:157] Top shape: 1 32 20 33 (21120)
I1018 23:07:11.754770  8982 net.cpp:165] Memory required for data: 810078720
I1018 23:07:11.754775  8982 layer_factory.hpp:77] Creating layer conv5_2/incep/2_reduce/relu
I1018 23:07:11.754778  8982 net.cpp:100] Creating Layer conv5_2/incep/2_reduce/relu
I1018 23:07:11.754781  8982 net.cpp:434] conv5_2/incep/2_reduce/relu <- conv5_2/incep/2_reduce
I1018 23:07:11.754784  8982 net.cpp:395] conv5_2/incep/2_reduce/relu -> conv5_2/incep/2_reduce (in-place)
1 32 20 33 
I1018 23:07:11.755235  8982 net.cpp:150] Setting up conv5_2/incep/2_reduce/relu
I1018 23:07:11.755242  8982 net.cpp:157] Top shape: 1 32 20 33 (21120)
I1018 23:07:11.755244  8982 net.cpp:165] Memory required for data: 810163200
I1018 23:07:11.755246  8982 layer_factory.hpp:77] Creating layer conv5_2/incep/2_0/conv
I1018 23:07:11.755254  8982 net.cpp:100] Creating Layer conv5_2/incep/2_0/conv
I1018 23:07:11.755257  8982 net.cpp:434] conv5_2/incep/2_0/conv <- conv5_2/incep/2_reduce
I1018 23:07:11.755262  8982 net.cpp:408] conv5_2/incep/2_0/conv -> conv5_2/incep/2_0
2 
2 
2 
2 
64 32 3 3 
64 
1 64 20 33 
3 
288 20 33 
660 
I1018 23:07:11.756548  8982 net.cpp:150] Setting up conv5_2/incep/2_0/conv
I1018 23:07:11.756556  8982 net.cpp:157] Top shape: 1 64 20 33 (42240)
I1018 23:07:11.756558  8982 net.cpp:165] Memory required for data: 810332160
I1018 23:07:11.756562  8982 layer_factory.hpp:77] Creating layer conv5_2/incep/2_0/relu
I1018 23:07:11.756567  8982 net.cpp:100] Creating Layer conv5_2/incep/2_0/relu
I1018 23:07:11.756570  8982 net.cpp:434] conv5_2/incep/2_0/relu <- conv5_2/incep/2_0
I1018 23:07:11.756574  8982 net.cpp:395] conv5_2/incep/2_0/relu -> conv5_2/incep/2_0 (in-place)
1 64 20 33 
I1018 23:07:11.756697  8982 net.cpp:150] Setting up conv5_2/incep/2_0/relu
I1018 23:07:11.756702  8982 net.cpp:157] Top shape: 1 64 20 33 (42240)
I1018 23:07:11.756705  8982 net.cpp:165] Memory required for data: 810501120
I1018 23:07:11.756707  8982 layer_factory.hpp:77] Creating layer conv5_2/incep/2_1/conv
I1018 23:07:11.756714  8982 net.cpp:100] Creating Layer conv5_2/incep/2_1/conv
I1018 23:07:11.756717  8982 net.cpp:434] conv5_2/incep/2_1/conv <- conv5_2/incep/2_0
I1018 23:07:11.756722  8982 net.cpp:408] conv5_2/incep/2_1/conv -> conv5_2/incep/2_1
2 
2 
2 
2 
64 64 3 3 
64 
1 64 20 33 
3 
576 20 33 
660 
I1018 23:07:11.758072  8982 net.cpp:150] Setting up conv5_2/incep/2_1/conv
I1018 23:07:11.758080  8982 net.cpp:157] Top shape: 1 64 20 33 (42240)
I1018 23:07:11.758082  8982 net.cpp:165] Memory required for data: 810670080
I1018 23:07:11.758087  8982 layer_factory.hpp:77] Creating layer conv5_2/incep/2_1/relu
I1018 23:07:11.758091  8982 net.cpp:100] Creating Layer conv5_2/incep/2_1/relu
I1018 23:07:11.758095  8982 net.cpp:434] conv5_2/incep/2_1/relu <- conv5_2/incep/2_1
I1018 23:07:11.758098  8982 net.cpp:395] conv5_2/incep/2_1/relu -> conv5_2/incep/2_1 (in-place)
1 64 20 33 
I1018 23:07:11.758220  8982 net.cpp:150] Setting up conv5_2/incep/2_1/relu
I1018 23:07:11.758225  8982 net.cpp:157] Top shape: 1 64 20 33 (42240)
I1018 23:07:11.758227  8982 net.cpp:165] Memory required for data: 810839040
I1018 23:07:11.758229  8982 layer_factory.hpp:77] Creating layer conv5_2/incep
I1018 23:07:11.758234  8982 net.cpp:100] Creating Layer conv5_2/incep
I1018 23:07:11.758237  8982 net.cpp:434] conv5_2/incep <- conv5_2/incep/0
I1018 23:07:11.758241  8982 net.cpp:434] conv5_2/incep <- conv5_2/incep/1_0
I1018 23:07:11.758244  8982 net.cpp:434] conv5_2/incep <- conv5_2/incep/2_1
I1018 23:07:11.758249  8982 net.cpp:408] conv5_2/incep -> conv5_2/incep
1 320 20 33 
I1018 23:07:11.758271  8982 net.cpp:150] Setting up conv5_2/incep
I1018 23:07:11.758275  8982 net.cpp:157] Top shape: 1 320 20 33 (211200)
I1018 23:07:11.758281  8982 net.cpp:165] Memory required for data: 811683840
I1018 23:07:11.758283  8982 layer_factory.hpp:77] Creating layer conv5_2/out/conv
I1018 23:07:11.758291  8982 net.cpp:100] Creating Layer conv5_2/out/conv
I1018 23:07:11.758292  8982 net.cpp:434] conv5_2/out/conv <- conv5_2/incep
I1018 23:07:11.758296  8982 net.cpp:408] conv5_2/out/conv -> conv5_2/out
2 
2 
2 
2 
384 320 1 1 
384 
1 384 20 33 
3 
320 20 33 
660 
I1018 23:07:11.758954  8982 net.cpp:150] Setting up conv5_2/out/conv
I1018 23:07:11.758960  8982 net.cpp:157] Top shape: 1 384 20 33 (253440)
I1018 23:07:11.758961  8982 net.cpp:165] Memory required for data: 812697600
I1018 23:07:11.758965  8982 layer_factory.hpp:77] Creating layer conv5_2/input
I1018 23:07:11.758970  8982 net.cpp:100] Creating Layer conv5_2/input
I1018 23:07:11.758972  8982 net.cpp:434] conv5_2/input <- conv5_1_conv5_1_0_split_3
I1018 23:07:11.758977  8982 net.cpp:408] conv5_2/input -> conv5_2/input
1 384 20 33 
I1018 23:07:11.758996  8982 net.cpp:150] Setting up conv5_2/input
I1018 23:07:11.759001  8982 net.cpp:157] Top shape: 1 384 20 33 (253440)
I1018 23:07:11.759002  8982 net.cpp:165] Memory required for data: 813711360
I1018 23:07:11.759006  8982 layer_factory.hpp:77] Creating layer conv5_2
I1018 23:07:11.759011  8982 net.cpp:100] Creating Layer conv5_2
I1018 23:07:11.759012  8982 net.cpp:434] conv5_2 <- conv5_2/out
I1018 23:07:11.759016  8982 net.cpp:434] conv5_2 <- conv5_2/input
I1018 23:07:11.759021  8982 net.cpp:408] conv5_2 -> conv5_2
1 384 20 33 
I1018 23:07:11.759040  8982 net.cpp:150] Setting up conv5_2
I1018 23:07:11.759044  8982 net.cpp:157] Top shape: 1 384 20 33 (253440)
I1018 23:07:11.759047  8982 net.cpp:165] Memory required for data: 814725120
I1018 23:07:11.759048  8982 layer_factory.hpp:77] Creating layer conv5_2_conv5_2_0_split
I1018 23:07:11.759053  8982 net.cpp:100] Creating Layer conv5_2_conv5_2_0_split
I1018 23:07:11.759055  8982 net.cpp:434] conv5_2_conv5_2_0_split <- conv5_2
I1018 23:07:11.759060  8982 net.cpp:408] conv5_2_conv5_2_0_split -> conv5_2_conv5_2_0_split_0
I1018 23:07:11.759064  8982 net.cpp:408] conv5_2_conv5_2_0_split -> conv5_2_conv5_2_0_split_1
I1018 23:07:11.759068  8982 net.cpp:408] conv5_2_conv5_2_0_split -> conv5_2_conv5_2_0_split_2
I1018 23:07:11.759073  8982 net.cpp:408] conv5_2_conv5_2_0_split -> conv5_2_conv5_2_0_split_3
1 384 20 33 
1 384 20 33 
1 384 20 33 
1 384 20 33 
I1018 23:07:11.759124  8982 net.cpp:150] Setting up conv5_2_conv5_2_0_split
I1018 23:07:11.759129  8982 net.cpp:157] Top shape: 1 384 20 33 (253440)
I1018 23:07:11.759131  8982 net.cpp:157] Top shape: 1 384 20 33 (253440)
I1018 23:07:11.759135  8982 net.cpp:157] Top shape: 1 384 20 33 (253440)
I1018 23:07:11.759136  8982 net.cpp:157] Top shape: 1 384 20 33 (253440)
I1018 23:07:11.759138  8982 net.cpp:165] Memory required for data: 818780160
I1018 23:07:11.759141  8982 layer_factory.hpp:77] Creating layer conv5_3/incep/0/conv
I1018 23:07:11.759147  8982 net.cpp:100] Creating Layer conv5_3/incep/0/conv
I1018 23:07:11.759150  8982 net.cpp:434] conv5_3/incep/0/conv <- conv5_2_conv5_2_0_split_0
I1018 23:07:11.759155  8982 net.cpp:408] conv5_3/incep/0/conv -> conv5_3/incep/0
2 
2 
2 
2 
64 384 1 1 
64 
1 64 20 33 
3 
384 20 33 
660 
I1018 23:07:11.759438  8982 net.cpp:150] Setting up conv5_3/incep/0/conv
I1018 23:07:11.759441  8982 net.cpp:157] Top shape: 1 64 20 33 (42240)
I1018 23:07:11.759444  8982 net.cpp:165] Memory required for data: 818949120
I1018 23:07:11.759449  8982 layer_factory.hpp:77] Creating layer conv5_3/incep/0/relu
I1018 23:07:11.759452  8982 net.cpp:100] Creating Layer conv5_3/incep/0/relu
I1018 23:07:11.759454  8982 net.cpp:434] conv5_3/incep/0/relu <- conv5_3/incep/0
I1018 23:07:11.759459  8982 net.cpp:395] conv5_3/incep/0/relu -> conv5_3/incep/0 (in-place)
1 64 20 33 
I1018 23:07:11.759908  8982 net.cpp:150] Setting up conv5_3/incep/0/relu
I1018 23:07:11.759914  8982 net.cpp:157] Top shape: 1 64 20 33 (42240)
I1018 23:07:11.759917  8982 net.cpp:165] Memory required for data: 819118080
I1018 23:07:11.759919  8982 layer_factory.hpp:77] Creating layer conv5_3/incep/1_reduce/conv
I1018 23:07:11.759929  8982 net.cpp:100] Creating Layer conv5_3/incep/1_reduce/conv
I1018 23:07:11.759932  8982 net.cpp:434] conv5_3/incep/1_reduce/conv <- conv5_2_conv5_2_0_split_1
I1018 23:07:11.759938  8982 net.cpp:408] conv5_3/incep/1_reduce/conv -> conv5_3/incep/1_reduce
2 
2 
2 
2 
96 384 1 1 
96 
1 96 20 33 
3 
384 20 33 
660 
I1018 23:07:11.760288  8982 net.cpp:150] Setting up conv5_3/incep/1_reduce/conv
I1018 23:07:11.760294  8982 net.cpp:157] Top shape: 1 96 20 33 (63360)
I1018 23:07:11.760296  8982 net.cpp:165] Memory required for data: 819371520
I1018 23:07:11.760301  8982 layer_factory.hpp:77] Creating layer conv5_3/incep/1_reduce/relu
I1018 23:07:11.760305  8982 net.cpp:100] Creating Layer conv5_3/incep/1_reduce/relu
I1018 23:07:11.760308  8982 net.cpp:434] conv5_3/incep/1_reduce/relu <- conv5_3/incep/1_reduce
I1018 23:07:11.760311  8982 net.cpp:395] conv5_3/incep/1_reduce/relu -> conv5_3/incep/1_reduce (in-place)
1 96 20 33 
I1018 23:07:11.760764  8982 net.cpp:150] Setting up conv5_3/incep/1_reduce/relu
I1018 23:07:11.760771  8982 net.cpp:157] Top shape: 1 96 20 33 (63360)
I1018 23:07:11.760772  8982 net.cpp:165] Memory required for data: 819624960
I1018 23:07:11.760776  8982 layer_factory.hpp:77] Creating layer conv5_3/incep/1_0/conv
I1018 23:07:11.760782  8982 net.cpp:100] Creating Layer conv5_3/incep/1_0/conv
I1018 23:07:11.760785  8982 net.cpp:434] conv5_3/incep/1_0/conv <- conv5_3/incep/1_reduce
I1018 23:07:11.760789  8982 net.cpp:408] conv5_3/incep/1_0/conv -> conv5_3/incep/1_0
2 
2 
2 
2 
192 96 3 3 
192 
1 192 20 33 
3 
864 20 33 
660 
I1018 23:07:11.762944  8982 net.cpp:150] Setting up conv5_3/incep/1_0/conv
I1018 23:07:11.762953  8982 net.cpp:157] Top shape: 1 192 20 33 (126720)
I1018 23:07:11.762955  8982 net.cpp:165] Memory required for data: 820131840
I1018 23:07:11.762959  8982 layer_factory.hpp:77] Creating layer conv5_3/incep/1_0/relu
I1018 23:07:11.762964  8982 net.cpp:100] Creating Layer conv5_3/incep/1_0/relu
I1018 23:07:11.762967  8982 net.cpp:434] conv5_3/incep/1_0/relu <- conv5_3/incep/1_0
I1018 23:07:11.762971  8982 net.cpp:395] conv5_3/incep/1_0/relu -> conv5_3/incep/1_0 (in-place)
1 192 20 33 
I1018 23:07:11.763432  8982 net.cpp:150] Setting up conv5_3/incep/1_0/relu
I1018 23:07:11.763438  8982 net.cpp:157] Top shape: 1 192 20 33 (126720)
I1018 23:07:11.763440  8982 net.cpp:165] Memory required for data: 820638720
I1018 23:07:11.763443  8982 layer_factory.hpp:77] Creating layer conv5_3/incep/2_reduce/conv
I1018 23:07:11.763450  8982 net.cpp:100] Creating Layer conv5_3/incep/2_reduce/conv
I1018 23:07:11.763453  8982 net.cpp:434] conv5_3/incep/2_reduce/conv <- conv5_2_conv5_2_0_split_2
I1018 23:07:11.763458  8982 net.cpp:408] conv5_3/incep/2_reduce/conv -> conv5_3/incep/2_reduce
2 
2 
2 
2 
32 384 1 1 
32 
1 32 20 33 
3 
384 20 33 
660 
I1018 23:07:11.763711  8982 net.cpp:150] Setting up conv5_3/incep/2_reduce/conv
I1018 23:07:11.763717  8982 net.cpp:157] Top shape: 1 32 20 33 (21120)
I1018 23:07:11.763720  8982 net.cpp:165] Memory required for data: 820723200
I1018 23:07:11.763723  8982 layer_factory.hpp:77] Creating layer conv5_3/incep/2_reduce/relu
I1018 23:07:11.763727  8982 net.cpp:100] Creating Layer conv5_3/incep/2_reduce/relu
I1018 23:07:11.763731  8982 net.cpp:434] conv5_3/incep/2_reduce/relu <- conv5_3/incep/2_reduce
I1018 23:07:11.763734  8982 net.cpp:395] conv5_3/incep/2_reduce/relu -> conv5_3/incep/2_reduce (in-place)
1 32 20 33 
I1018 23:07:11.763856  8982 net.cpp:150] Setting up conv5_3/incep/2_reduce/relu
I1018 23:07:11.763861  8982 net.cpp:157] Top shape: 1 32 20 33 (21120)
I1018 23:07:11.763864  8982 net.cpp:165] Memory required for data: 820807680
I1018 23:07:11.763865  8982 layer_factory.hpp:77] Creating layer conv5_3/incep/2_0/conv
I1018 23:07:11.763872  8982 net.cpp:100] Creating Layer conv5_3/incep/2_0/conv
I1018 23:07:11.763875  8982 net.cpp:434] conv5_3/incep/2_0/conv <- conv5_3/incep/2_reduce
I1018 23:07:11.763880  8982 net.cpp:408] conv5_3/incep/2_0/conv -> conv5_3/incep/2_0
2 
2 
2 
2 
64 32 3 3 
64 
1 64 20 33 
3 
288 20 33 
660 
I1018 23:07:11.765182  8982 net.cpp:150] Setting up conv5_3/incep/2_0/conv
I1018 23:07:11.765190  8982 net.cpp:157] Top shape: 1 64 20 33 (42240)
I1018 23:07:11.765193  8982 net.cpp:165] Memory required for data: 820976640
I1018 23:07:11.765197  8982 layer_factory.hpp:77] Creating layer conv5_3/incep/2_0/relu
I1018 23:07:11.765202  8982 net.cpp:100] Creating Layer conv5_3/incep/2_0/relu
I1018 23:07:11.765205  8982 net.cpp:434] conv5_3/incep/2_0/relu <- conv5_3/incep/2_0
I1018 23:07:11.765209  8982 net.cpp:395] conv5_3/incep/2_0/relu -> conv5_3/incep/2_0 (in-place)
1 64 20 33 
I1018 23:07:11.765661  8982 net.cpp:150] Setting up conv5_3/incep/2_0/relu
I1018 23:07:11.765666  8982 net.cpp:157] Top shape: 1 64 20 33 (42240)
I1018 23:07:11.765669  8982 net.cpp:165] Memory required for data: 821145600
I1018 23:07:11.765671  8982 layer_factory.hpp:77] Creating layer conv5_3/incep/2_1/conv
I1018 23:07:11.765681  8982 net.cpp:100] Creating Layer conv5_3/incep/2_1/conv
I1018 23:07:11.765683  8982 net.cpp:434] conv5_3/incep/2_1/conv <- conv5_3/incep/2_0
I1018 23:07:11.765688  8982 net.cpp:408] conv5_3/incep/2_1/conv -> conv5_3/incep/2_1
2 
2 
2 
2 
64 64 3 3 
64 
1 64 20 33 
3 
576 20 33 
660 
I1018 23:07:11.767055  8982 net.cpp:150] Setting up conv5_3/incep/2_1/conv
I1018 23:07:11.767061  8982 net.cpp:157] Top shape: 1 64 20 33 (42240)
I1018 23:07:11.767065  8982 net.cpp:165] Memory required for data: 821314560
I1018 23:07:11.767068  8982 layer_factory.hpp:77] Creating layer conv5_3/incep/2_1/relu
I1018 23:07:11.767073  8982 net.cpp:100] Creating Layer conv5_3/incep/2_1/relu
I1018 23:07:11.767076  8982 net.cpp:434] conv5_3/incep/2_1/relu <- conv5_3/incep/2_1
I1018 23:07:11.767081  8982 net.cpp:395] conv5_3/incep/2_1/relu -> conv5_3/incep/2_1 (in-place)
1 64 20 33 
I1018 23:07:11.767205  8982 net.cpp:150] Setting up conv5_3/incep/2_1/relu
I1018 23:07:11.767211  8982 net.cpp:157] Top shape: 1 64 20 33 (42240)
I1018 23:07:11.767213  8982 net.cpp:165] Memory required for data: 821483520
I1018 23:07:11.767215  8982 layer_factory.hpp:77] Creating layer conv5_3/incep
I1018 23:07:11.767220  8982 net.cpp:100] Creating Layer conv5_3/incep
I1018 23:07:11.767223  8982 net.cpp:434] conv5_3/incep <- conv5_3/incep/0
I1018 23:07:11.767226  8982 net.cpp:434] conv5_3/incep <- conv5_3/incep/1_0
I1018 23:07:11.767230  8982 net.cpp:434] conv5_3/incep <- conv5_3/incep/2_1
I1018 23:07:11.767233  8982 net.cpp:408] conv5_3/incep -> conv5_3/incep
1 320 20 33 
I1018 23:07:11.767256  8982 net.cpp:150] Setting up conv5_3/incep
I1018 23:07:11.767261  8982 net.cpp:157] Top shape: 1 320 20 33 (211200)
I1018 23:07:11.767263  8982 net.cpp:165] Memory required for data: 822328320
I1018 23:07:11.767266  8982 layer_factory.hpp:77] Creating layer conv5_3/out/conv
I1018 23:07:11.767271  8982 net.cpp:100] Creating Layer conv5_3/out/conv
I1018 23:07:11.767274  8982 net.cpp:434] conv5_3/out/conv <- conv5_3/incep
I1018 23:07:11.767278  8982 net.cpp:408] conv5_3/out/conv -> conv5_3/out
2 
2 
2 
2 
384 320 1 1 
384 
1 384 20 33 
3 
320 20 33 
660 
I1018 23:07:11.768239  8982 net.cpp:150] Setting up conv5_3/out/conv
I1018 23:07:11.768247  8982 net.cpp:157] Top shape: 1 384 20 33 (253440)
I1018 23:07:11.768250  8982 net.cpp:165] Memory required for data: 823342080
I1018 23:07:11.768254  8982 layer_factory.hpp:77] Creating layer conv5_3/input
I1018 23:07:11.768260  8982 net.cpp:100] Creating Layer conv5_3/input
I1018 23:07:11.768262  8982 net.cpp:434] conv5_3/input <- conv5_2_conv5_2_0_split_3
I1018 23:07:11.768266  8982 net.cpp:408] conv5_3/input -> conv5_3/input
1 384 20 33 
I1018 23:07:11.768288  8982 net.cpp:150] Setting up conv5_3/input
I1018 23:07:11.768292  8982 net.cpp:157] Top shape: 1 384 20 33 (253440)
I1018 23:07:11.768295  8982 net.cpp:165] Memory required for data: 824355840
I1018 23:07:11.768296  8982 layer_factory.hpp:77] Creating layer conv5_3
I1018 23:07:11.768302  8982 net.cpp:100] Creating Layer conv5_3
I1018 23:07:11.768304  8982 net.cpp:434] conv5_3 <- conv5_3/out
I1018 23:07:11.768308  8982 net.cpp:434] conv5_3 <- conv5_3/input
I1018 23:07:11.768314  8982 net.cpp:408] conv5_3 -> conv5_3
1 384 20 33 
I1018 23:07:11.768335  8982 net.cpp:150] Setting up conv5_3
I1018 23:07:11.768339  8982 net.cpp:157] Top shape: 1 384 20 33 (253440)
I1018 23:07:11.768342  8982 net.cpp:165] Memory required for data: 825369600
I1018 23:07:11.768344  8982 layer_factory.hpp:77] Creating layer conv5_3_conv5_3_0_split
I1018 23:07:11.768348  8982 net.cpp:100] Creating Layer conv5_3_conv5_3_0_split
I1018 23:07:11.768350  8982 net.cpp:434] conv5_3_conv5_3_0_split <- conv5_3
I1018 23:07:11.768355  8982 net.cpp:408] conv5_3_conv5_3_0_split -> conv5_3_conv5_3_0_split_0
I1018 23:07:11.768359  8982 net.cpp:408] conv5_3_conv5_3_0_split -> conv5_3_conv5_3_0_split_1
I1018 23:07:11.768364  8982 net.cpp:408] conv5_3_conv5_3_0_split -> conv5_3_conv5_3_0_split_2
I1018 23:07:11.768368  8982 net.cpp:408] conv5_3_conv5_3_0_split -> conv5_3_conv5_3_0_split_3
1 384 20 33 
1 384 20 33 
1 384 20 33 
1 384 20 33 
I1018 23:07:11.768421  8982 net.cpp:150] Setting up conv5_3_conv5_3_0_split
I1018 23:07:11.768425  8982 net.cpp:157] Top shape: 1 384 20 33 (253440)
I1018 23:07:11.768429  8982 net.cpp:157] Top shape: 1 384 20 33 (253440)
I1018 23:07:11.768430  8982 net.cpp:157] Top shape: 1 384 20 33 (253440)
I1018 23:07:11.768434  8982 net.cpp:157] Top shape: 1 384 20 33 (253440)
I1018 23:07:11.768435  8982 net.cpp:165] Memory required for data: 829424640
I1018 23:07:11.768437  8982 layer_factory.hpp:77] Creating layer conv5_4/incep/0/conv
I1018 23:07:11.768443  8982 net.cpp:100] Creating Layer conv5_4/incep/0/conv
I1018 23:07:11.768446  8982 net.cpp:434] conv5_4/incep/0/conv <- conv5_3_conv5_3_0_split_0
I1018 23:07:11.768451  8982 net.cpp:408] conv5_4/incep/0/conv -> conv5_4/incep/0
2 
2 
2 
2 
64 384 1 1 
64 
1 64 20 33 
3 
384 20 33 
660 
I1018 23:07:11.768739  8982 net.cpp:150] Setting up conv5_4/incep/0/conv
I1018 23:07:11.768744  8982 net.cpp:157] Top shape: 1 64 20 33 (42240)
I1018 23:07:11.768746  8982 net.cpp:165] Memory required for data: 829593600
I1018 23:07:11.768750  8982 layer_factory.hpp:77] Creating layer conv5_4/incep/0/relu
I1018 23:07:11.768755  8982 net.cpp:100] Creating Layer conv5_4/incep/0/relu
I1018 23:07:11.768757  8982 net.cpp:434] conv5_4/incep/0/relu <- conv5_4/incep/0
I1018 23:07:11.768761  8982 net.cpp:395] conv5_4/incep/0/relu -> conv5_4/incep/0 (in-place)
1 64 20 33 
I1018 23:07:11.769219  8982 net.cpp:150] Setting up conv5_4/incep/0/relu
I1018 23:07:11.769227  8982 net.cpp:157] Top shape: 1 64 20 33 (42240)
I1018 23:07:11.769229  8982 net.cpp:165] Memory required for data: 829762560
I1018 23:07:11.769232  8982 layer_factory.hpp:77] Creating layer conv5_4/incep/1_reduce/conv
I1018 23:07:11.769240  8982 net.cpp:100] Creating Layer conv5_4/incep/1_reduce/conv
I1018 23:07:11.769243  8982 net.cpp:434] conv5_4/incep/1_reduce/conv <- conv5_3_conv5_3_0_split_1
I1018 23:07:11.769248  8982 net.cpp:408] conv5_4/incep/1_reduce/conv -> conv5_4/incep/1_reduce
2 
2 
2 
2 
96 384 1 1 
96 
1 96 20 33 
3 
384 20 33 
660 
I1018 23:07:11.769860  8982 net.cpp:150] Setting up conv5_4/incep/1_reduce/conv
I1018 23:07:11.769867  8982 net.cpp:157] Top shape: 1 96 20 33 (63360)
I1018 23:07:11.769870  8982 net.cpp:165] Memory required for data: 830016000
I1018 23:07:11.769875  8982 layer_factory.hpp:77] Creating layer conv5_4/incep/1_reduce/relu
I1018 23:07:11.769879  8982 net.cpp:100] Creating Layer conv5_4/incep/1_reduce/relu
I1018 23:07:11.769882  8982 net.cpp:434] conv5_4/incep/1_reduce/relu <- conv5_4/incep/1_reduce
I1018 23:07:11.769886  8982 net.cpp:395] conv5_4/incep/1_reduce/relu -> conv5_4/incep/1_reduce (in-place)
1 96 20 33 
I1018 23:07:11.770015  8982 net.cpp:150] Setting up conv5_4/incep/1_reduce/relu
I1018 23:07:11.770020  8982 net.cpp:157] Top shape: 1 96 20 33 (63360)
I1018 23:07:11.770022  8982 net.cpp:165] Memory required for data: 830269440
I1018 23:07:11.770025  8982 layer_factory.hpp:77] Creating layer conv5_4/incep/1_0/conv
I1018 23:07:11.770031  8982 net.cpp:100] Creating Layer conv5_4/incep/1_0/conv
I1018 23:07:11.770035  8982 net.cpp:434] conv5_4/incep/1_0/conv <- conv5_4/incep/1_reduce
I1018 23:07:11.770042  8982 net.cpp:408] conv5_4/incep/1_0/conv -> conv5_4/incep/1_0
2 
2 
2 
2 
192 96 3 3 
192 
1 192 20 33 
3 
864 20 33 
660 
I1018 23:07:11.772188  8982 net.cpp:150] Setting up conv5_4/incep/1_0/conv
I1018 23:07:11.772197  8982 net.cpp:157] Top shape: 1 192 20 33 (126720)
I1018 23:07:11.772199  8982 net.cpp:165] Memory required for data: 830776320
I1018 23:07:11.772204  8982 layer_factory.hpp:77] Creating layer conv5_4/incep/1_0/relu
I1018 23:07:11.772209  8982 net.cpp:100] Creating Layer conv5_4/incep/1_0/relu
I1018 23:07:11.772212  8982 net.cpp:434] conv5_4/incep/1_0/relu <- conv5_4/incep/1_0
I1018 23:07:11.772215  8982 net.cpp:395] conv5_4/incep/1_0/relu -> conv5_4/incep/1_0 (in-place)
1 192 20 33 
I1018 23:07:11.772346  8982 net.cpp:150] Setting up conv5_4/incep/1_0/relu
I1018 23:07:11.772349  8982 net.cpp:157] Top shape: 1 192 20 33 (126720)
I1018 23:07:11.772352  8982 net.cpp:165] Memory required for data: 831283200
I1018 23:07:11.772354  8982 layer_factory.hpp:77] Creating layer conv5_4/incep/2_reduce/conv
I1018 23:07:11.772361  8982 net.cpp:100] Creating Layer conv5_4/incep/2_reduce/conv
I1018 23:07:11.772364  8982 net.cpp:434] conv5_4/incep/2_reduce/conv <- conv5_3_conv5_3_0_split_2
I1018 23:07:11.772369  8982 net.cpp:408] conv5_4/incep/2_reduce/conv -> conv5_4/incep/2_reduce
2 
2 
2 
2 
32 384 1 1 
32 
1 32 20 33 
3 
384 20 33 
660 
I1018 23:07:11.772629  8982 net.cpp:150] Setting up conv5_4/incep/2_reduce/conv
I1018 23:07:11.772634  8982 net.cpp:157] Top shape: 1 32 20 33 (21120)
I1018 23:07:11.772636  8982 net.cpp:165] Memory required for data: 831367680
I1018 23:07:11.772640  8982 layer_factory.hpp:77] Creating layer conv5_4/incep/2_reduce/relu
I1018 23:07:11.772645  8982 net.cpp:100] Creating Layer conv5_4/incep/2_reduce/relu
I1018 23:07:11.772647  8982 net.cpp:434] conv5_4/incep/2_reduce/relu <- conv5_4/incep/2_reduce
I1018 23:07:11.772652  8982 net.cpp:395] conv5_4/incep/2_reduce/relu -> conv5_4/incep/2_reduce (in-place)
1 32 20 33 
I1018 23:07:11.773105  8982 net.cpp:150] Setting up conv5_4/incep/2_reduce/relu
I1018 23:07:11.773111  8982 net.cpp:157] Top shape: 1 32 20 33 (21120)
I1018 23:07:11.773113  8982 net.cpp:165] Memory required for data: 831452160
I1018 23:07:11.773116  8982 layer_factory.hpp:77] Creating layer conv5_4/incep/2_0/conv
I1018 23:07:11.773123  8982 net.cpp:100] Creating Layer conv5_4/incep/2_0/conv
I1018 23:07:11.773126  8982 net.cpp:434] conv5_4/incep/2_0/conv <- conv5_4/incep/2_reduce
I1018 23:07:11.773131  8982 net.cpp:408] conv5_4/incep/2_0/conv -> conv5_4/incep/2_0
2 
2 
2 
2 
64 32 3 3 
64 
1 64 20 33 
3 
288 20 33 
660 
I1018 23:07:11.774442  8982 net.cpp:150] Setting up conv5_4/incep/2_0/conv
I1018 23:07:11.774449  8982 net.cpp:157] Top shape: 1 64 20 33 (42240)
I1018 23:07:11.774452  8982 net.cpp:165] Memory required for data: 831621120
I1018 23:07:11.774456  8982 layer_factory.hpp:77] Creating layer conv5_4/incep/2_0/relu
I1018 23:07:11.774461  8982 net.cpp:100] Creating Layer conv5_4/incep/2_0/relu
I1018 23:07:11.774464  8982 net.cpp:434] conv5_4/incep/2_0/relu <- conv5_4/incep/2_0
I1018 23:07:11.774468  8982 net.cpp:395] conv5_4/incep/2_0/relu -> conv5_4/incep/2_0 (in-place)
1 64 20 33 
I1018 23:07:11.774593  8982 net.cpp:150] Setting up conv5_4/incep/2_0/relu
I1018 23:07:11.774598  8982 net.cpp:157] Top shape: 1 64 20 33 (42240)
I1018 23:07:11.774600  8982 net.cpp:165] Memory required for data: 831790080
I1018 23:07:11.774602  8982 layer_factory.hpp:77] Creating layer conv5_4/incep/2_1/conv
I1018 23:07:11.774610  8982 net.cpp:100] Creating Layer conv5_4/incep/2_1/conv
I1018 23:07:11.774612  8982 net.cpp:434] conv5_4/incep/2_1/conv <- conv5_4/incep/2_0
I1018 23:07:11.774617  8982 net.cpp:408] conv5_4/incep/2_1/conv -> conv5_4/incep/2_1
2 
2 
2 
2 
64 64 3 3 
64 
1 64 20 33 
3 
576 20 33 
660 
I1018 23:07:11.776000  8982 net.cpp:150] Setting up conv5_4/incep/2_1/conv
I1018 23:07:11.776006  8982 net.cpp:157] Top shape: 1 64 20 33 (42240)
I1018 23:07:11.776010  8982 net.cpp:165] Memory required for data: 831959040
I1018 23:07:11.776013  8982 layer_factory.hpp:77] Creating layer conv5_4/incep/2_1/relu
I1018 23:07:11.776021  8982 net.cpp:100] Creating Layer conv5_4/incep/2_1/relu
I1018 23:07:11.776024  8982 net.cpp:434] conv5_4/incep/2_1/relu <- conv5_4/incep/2_1
I1018 23:07:11.776028  8982 net.cpp:395] conv5_4/incep/2_1/relu -> conv5_4/incep/2_1 (in-place)
1 64 20 33 
I1018 23:07:11.776813  8982 net.cpp:150] Setting up conv5_4/incep/2_1/relu
I1018 23:07:11.776818  8982 net.cpp:157] Top shape: 1 64 20 33 (42240)
I1018 23:07:11.776821  8982 net.cpp:165] Memory required for data: 832128000
I1018 23:07:11.776823  8982 layer_factory.hpp:77] Creating layer conv5_4/incep
I1018 23:07:11.776829  8982 net.cpp:100] Creating Layer conv5_4/incep
I1018 23:07:11.776831  8982 net.cpp:434] conv5_4/incep <- conv5_4/incep/0
I1018 23:07:11.776834  8982 net.cpp:434] conv5_4/incep <- conv5_4/incep/1_0
I1018 23:07:11.776839  8982 net.cpp:434] conv5_4/incep <- conv5_4/incep/2_1
I1018 23:07:11.776842  8982 net.cpp:408] conv5_4/incep -> conv5_4/incep
1 320 20 33 
I1018 23:07:11.776868  8982 net.cpp:150] Setting up conv5_4/incep
I1018 23:07:11.776875  8982 net.cpp:157] Top shape: 1 320 20 33 (211200)
I1018 23:07:11.776876  8982 net.cpp:165] Memory required for data: 832972800
I1018 23:07:11.776878  8982 layer_factory.hpp:77] Creating layer conv5_4/out/conv
I1018 23:07:11.776885  8982 net.cpp:100] Creating Layer conv5_4/out/conv
I1018 23:07:11.776886  8982 net.cpp:434] conv5_4/out/conv <- conv5_4/incep
I1018 23:07:11.776891  8982 net.cpp:408] conv5_4/out/conv -> conv5_4/out
2 
2 
2 
2 
384 320 1 1 
384 
1 384 20 33 
3 
320 20 33 
660 
I1018 23:07:11.777562  8982 net.cpp:150] Setting up conv5_4/out/conv
I1018 23:07:11.777567  8982 net.cpp:157] Top shape: 1 384 20 33 (253440)
I1018 23:07:11.777570  8982 net.cpp:165] Memory required for data: 833986560
I1018 23:07:11.777573  8982 layer_factory.hpp:77] Creating layer conv5_4/input
I1018 23:07:11.777578  8982 net.cpp:100] Creating Layer conv5_4/input
I1018 23:07:11.777580  8982 net.cpp:434] conv5_4/input <- conv5_3_conv5_3_0_split_3
I1018 23:07:11.777585  8982 net.cpp:408] conv5_4/input -> conv5_4/input
1 384 20 33 
I1018 23:07:11.777606  8982 net.cpp:150] Setting up conv5_4/input
I1018 23:07:11.777609  8982 net.cpp:157] Top shape: 1 384 20 33 (253440)
I1018 23:07:11.777611  8982 net.cpp:165] Memory required for data: 835000320
I1018 23:07:11.777614  8982 layer_factory.hpp:77] Creating layer conv5_4
I1018 23:07:11.777619  8982 net.cpp:100] Creating Layer conv5_4
I1018 23:07:11.777621  8982 net.cpp:434] conv5_4 <- conv5_4/out
I1018 23:07:11.777624  8982 net.cpp:434] conv5_4 <- conv5_4/input
I1018 23:07:11.777628  8982 net.cpp:408] conv5_4 -> conv5_4
1 384 20 33 
I1018 23:07:11.777649  8982 net.cpp:150] Setting up conv5_4
I1018 23:07:11.777653  8982 net.cpp:157] Top shape: 1 384 20 33 (253440)
I1018 23:07:11.777655  8982 net.cpp:165] Memory required for data: 836014080
I1018 23:07:11.777657  8982 layer_factory.hpp:77] Creating layer upsample/conv4_4
I1018 23:07:11.777663  8982 net.cpp:100] Creating Layer upsample/conv4_4
I1018 23:07:11.777667  8982 net.cpp:434] upsample/conv4_4 <- conv4_4_conv4_4_0_split_5
I1018 23:07:11.777671  8982 net.cpp:408] upsample/conv4_4 -> upsample/conv4_4
2 
2 
2 
2 
256 1 4 4 
1 256 80 132 
3 
4096 40 66 
I1018 23:07:11.777945  8982 net.cpp:150] Setting up upsample/conv4_4
I1018 23:07:11.777950  8982 net.cpp:157] Top shape: 1 256 80 132 (2703360)
I1018 23:07:11.777952  8982 net.cpp:165] Memory required for data: 846827520
I1018 23:07:11.777956  8982 layer_factory.hpp:77] Creating layer upsample/conv5_4
I1018 23:07:11.777961  8982 net.cpp:100] Creating Layer upsample/conv5_4
I1018 23:07:11.777962  8982 net.cpp:434] upsample/conv5_4 <- conv5_4
I1018 23:07:11.777966  8982 net.cpp:408] upsample/conv5_4 -> upsample/conv5_4
2 
2 
2 
2 
384 1 8 8 
1 384 80 132 
3 
24576 20 33 
I1018 23:07:11.778733  8982 net.cpp:150] Setting up upsample/conv5_4
I1018 23:07:11.778738  8982 net.cpp:157] Top shape: 1 384 80 132 (4055040)
I1018 23:07:11.778740  8982 net.cpp:165] Memory required for data: 863047680
I1018 23:07:11.778743  8982 layer_factory.hpp:77] Creating layer concat
I1018 23:07:11.778751  8982 net.cpp:100] Creating Layer concat
I1018 23:07:11.778754  8982 net.cpp:434] concat <- conv3_4_conv3_4_0_split_5
I1018 23:07:11.778759  8982 net.cpp:434] concat <- upsample/conv4_4
I1018 23:07:11.778760  8982 net.cpp:434] concat <- upsample/conv5_4
I1018 23:07:11.778764  8982 net.cpp:408] concat -> concat
1 768 80 132 
I1018 23:07:11.778785  8982 net.cpp:150] Setting up concat
I1018 23:07:11.778789  8982 net.cpp:157] Top shape: 1 768 80 132 (8110080)
I1018 23:07:11.778792  8982 net.cpp:165] Memory required for data: 895488000
I1018 23:07:11.778795  8982 layer_factory.hpp:77] Creating layer convf_rpn
I1018 23:07:11.778800  8982 net.cpp:100] Creating Layer convf_rpn
I1018 23:07:11.778801  8982 net.cpp:434] convf_rpn <- concat
I1018 23:07:11.778806  8982 net.cpp:408] convf_rpn -> convf_rpn
2 
2 
2 
2 
128 768 1 1 
128 
1 128 80 132 
3 
768 80 132 
10560 
I1018 23:07:11.780387  8982 net.cpp:150] Setting up convf_rpn
I1018 23:07:11.780395  8982 net.cpp:157] Top shape: 1 128 80 132 (1351680)
I1018 23:07:11.780397  8982 net.cpp:165] Memory required for data: 900894720
I1018 23:07:11.780402  8982 layer_factory.hpp:77] Creating layer reluf_rpn
I1018 23:07:11.780406  8982 net.cpp:100] Creating Layer reluf_rpn
I1018 23:07:11.780409  8982 net.cpp:434] reluf_rpn <- convf_rpn
I1018 23:07:11.780412  8982 net.cpp:395] reluf_rpn -> convf_rpn (in-place)
1 128 80 132 
I1018 23:07:11.780870  8982 net.cpp:150] Setting up reluf_rpn
I1018 23:07:11.780876  8982 net.cpp:157] Top shape: 1 128 80 132 (1351680)
I1018 23:07:11.780879  8982 net.cpp:165] Memory required for data: 906301440
I1018 23:07:11.780881  8982 layer_factory.hpp:77] Creating layer rpn_conv1
I1018 23:07:11.780889  8982 net.cpp:100] Creating Layer rpn_conv1
I1018 23:07:11.780892  8982 net.cpp:434] rpn_conv1 <- convf_rpn
I1018 23:07:11.780897  8982 net.cpp:408] rpn_conv1 -> rpn_conv1
2 
2 
2 
2 
384 128 3 3 
384 
1 384 80 132 
3 
1152 80 132 
10560 
I1018 23:07:11.785987  8982 net.cpp:150] Setting up rpn_conv1
I1018 23:07:11.785996  8982 net.cpp:157] Top shape: 1 384 80 132 (4055040)
I1018 23:07:11.786000  8982 net.cpp:165] Memory required for data: 922521600
I1018 23:07:11.786005  8982 layer_factory.hpp:77] Creating layer rpn_relu1
I1018 23:07:11.786008  8982 net.cpp:100] Creating Layer rpn_relu1
I1018 23:07:11.786011  8982 net.cpp:434] rpn_relu1 <- rpn_conv1
I1018 23:07:11.786015  8982 net.cpp:395] rpn_relu1 -> rpn_conv1 (in-place)
1 384 80 132 
I1018 23:07:11.786149  8982 net.cpp:150] Setting up rpn_relu1
I1018 23:07:11.786154  8982 net.cpp:157] Top shape: 1 384 80 132 (4055040)
I1018 23:07:11.786155  8982 net.cpp:165] Memory required for data: 938741760
I1018 23:07:11.786159  8982 layer_factory.hpp:77] Creating layer rpn_cls_score_28
I1018 23:07:11.786164  8982 net.cpp:100] Creating Layer rpn_cls_score_28
I1018 23:07:11.786167  8982 net.cpp:434] rpn_cls_score_28 <- rpn_conv1
I1018 23:07:11.786172  8982 net.cpp:408] rpn_cls_score_28 -> rpn_cls_score
2 
2 
2 
2 
28 384 1 1 
28 
1 28 80 132 
3 
384 80 132 
10560 
I1018 23:07:11.787510  8982 net.cpp:150] Setting up rpn_cls_score_28
I1018 23:07:11.787518  8982 net.cpp:157] Top shape: 1 28 80 132 (295680)
I1018 23:07:11.787521  8982 net.cpp:165] Memory required for data: 939924480
I1018 23:07:11.787525  8982 layer_factory.hpp:77] Creating layer upsample/rpn_cls_score
I1018 23:07:11.787531  8982 net.cpp:100] Creating Layer upsample/rpn_cls_score
I1018 23:07:11.787534  8982 net.cpp:434] upsample/rpn_cls_score <- rpn_cls_score
I1018 23:07:11.787539  8982 net.cpp:408] upsample/rpn_cls_score -> upsample/rpn_cls_score
2 
2 
2 
2 
28 1 16 16 
1 28 640 1056 
3 
7168 80 132 
I1018 23:07:11.787889  8982 net.cpp:150] Setting up upsample/rpn_cls_score
I1018 23:07:11.787894  8982 net.cpp:157] Top shape: 1 28 640 1056 (18923520)
I1018 23:07:11.787896  8982 net.cpp:165] Memory required for data: 1015618560
I1018 23:07:11.787899  8982 layer_factory.hpp:77] Creating layer rpn_cls_score_reshape
I1018 23:07:11.787906  8982 net.cpp:100] Creating Layer rpn_cls_score_reshape
I1018 23:07:11.787912  8982 net.cpp:434] rpn_cls_score_reshape <- upsample/rpn_cls_score
I1018 23:07:11.787916  8982 net.cpp:408] rpn_cls_score_reshape -> rpn_cls_score_reshape
14 2 640 1056 
I1018 23:07:11.787940  8982 net.cpp:150] Setting up rpn_cls_score_reshape
I1018 23:07:11.787943  8982 net.cpp:157] Top shape: 14 2 640 1056 (18923520)
I1018 23:07:11.787946  8982 net.cpp:165] Memory required for data: 1091312640
I1018 23:07:11.787948  8982 layer_factory.hpp:77] Creating layer rpn_cls_prob
I1018 23:07:11.787953  8982 net.cpp:100] Creating Layer rpn_cls_prob
I1018 23:07:11.787956  8982 net.cpp:434] rpn_cls_prob <- rpn_cls_score_reshape
I1018 23:07:11.787959  8982 net.cpp:408] rpn_cls_prob -> rpn_cls_prob
14 2 640 1056 
2 
14 1 640 1056 
I1018 23:07:11.788501  8982 net.cpp:150] Setting up rpn_cls_prob
I1018 23:07:11.788507  8982 net.cpp:157] Top shape: 14 2 640 1056 (18923520)
I1018 23:07:11.788509  8982 net.cpp:165] Memory required for data: 1167006720
I1018 23:07:11.788512  8982 layer_factory.hpp:77] Creating layer rpn_cls_prob_filtered
I1018 23:07:11.788519  8982 net.cpp:100] Creating Layer rpn_cls_prob_filtered
I1018 23:07:11.788522  8982 net.cpp:434] rpn_cls_prob_filtered <- rpn_cls_prob
I1018 23:07:11.788527  8982 net.cpp:408] rpn_cls_prob_filtered -> rpn_cls_prob_filtered
2 
2 
2 
2 
2 2 3 3 
14 2 640 1056 
3 
18 640 1056 
I1018 23:07:11.789731  8982 net.cpp:150] Setting up rpn_cls_prob_filtered
I1018 23:07:11.789738  8982 net.cpp:157] Top shape: 14 2 640 1056 (18923520)
I1018 23:07:11.789741  8982 net.cpp:165] Memory required for data: 1242700800
I1018 23:07:11.789746  8982 net.cpp:228] rpn_cls_prob_filtered does not need backward computation.
I1018 23:07:11.789748  8982 net.cpp:228] rpn_cls_prob does not need backward computation.
I1018 23:07:11.789750  8982 net.cpp:228] rpn_cls_score_reshape does not need backward computation.
I1018 23:07:11.789752  8982 net.cpp:228] upsample/rpn_cls_score does not need backward computation.
…
